app/ml_model/neural_network_pytorch_model_cars_price_prediction.pth (torch, 35396 bytes, 7 tensors)

weight f4 [50, 108]
00000000: 5627 a541 3afc d940 7338 50c1 ad07 fb40
00000010: 5ee3 99be cad9 6bc0 9ccc b640 d005 ae40
00000020: db77 4041 696e 39c0 1966 44bf ed2a df40
00000030: baea b7bf 29c6 4441 f992 ee3c 4ae2 6ac0
00000040: 41a4 82bf 5b67 debf 80ed 6f40 688c b0c0
00000050: 44e0 23c0 a82c c03f 5a40 82bf 5fee a53e
00000060: 5f9b b7bf f991 abc0 ca62 7c40 bb13 0240
00000070: 7e43 f2bf ad59 cf3d 2918 49c0 ed83 733f
00000080: c71c 0dbf 00d8 83c1 9227 00c1 1486 e23e
00000090: 230b 2040 8d95 0ac0 91df 33bf b016 1340
000000a0: 90da c23b 9bf4 c340 7a24 7dbf 27cb fac0
000000b0: 15d9 07c0 bfe8 e1c0 4fae 03c1 d1f0 8abf
000000c0: 8350 66bf 6745 923d 164f babe 9fac 623e
000000d0: 3be6 853f a737 e5be c09a 2bc0 e22e fe3f
000000e0: b14f a4bf eaaf 22ba b7fc 84bf 56b8 01c0
000000f0: fff3 4340 6ae3 5341 8d43 74c0 cb39 efc0
00000100: 971a 3440 f6f6 c2c0 9e16 b2bf 0bef 85c0
00000110: d763 2ec0 0819 06c0 df3c c640 35df 8ac0
00000120: 9bdd 8bbf d398 8fbf a409 3440 8f63 e7bf
00000130: 8846 9dbf 7f5b 61c1 b813 32c1 af2c db40
00000140: 9aa7 c63f 6345 18c1 6353 6f3f d7ef 87c0
00000150: 84da 9540 f459 e8c0 2d79 3040 06f9 2bc1
00000160: e41d 82c1 5c3c e2bd 11a1 3d40 0061 c5c0
00000170: be12 f1c0 fa3a 78c1 081c 4a40 d65c 46bf
00000180: 88c6 34c1 cbdd abbe 866f 42c1 c020 e540
00000190: 1e76 0840 f400 6640 4d9a 2840 7ac4 5840
000001a0: 206a d940 fed0 c1c0 84c3 ddbf cff3 9dbf
000001b0: dec3 213f 771d 6341 65aa 15c2 e3b0 47c1
000001c0: 248d 63bf 11c7 a13f e79d 01bf c545 2b40
000001d0: 6db8 c13f 84d2 10c0 35e0 72bf afcc 8ec0
000001e0: 36d4 d0c0 10a8 613f 2655 a840 e2b7 71bf
000001f0: b039 c43f 3d66 0e40 a8ae 6dc0 83a5 9640
00000200: 6b98 ba40 53bc b3bd 2171 9f40 f180 18bf
00000210: 2cd4 6cc0 c146 91bf 555e 2e40 5180 6c3e
00000220: 2111 b5c0 e79c 49c1 4ec2 2540 f14e a0c0
00000230: 9256 81be 42da f43f f78c 8bc0 5da2 eebf
00000240: 2585 e73f db4a 73c0 caa6 e2bf 793f 893f
00000250: fc22 ac40 61b0 a7c0 f764 813f 5b66 87c0
00000260: 2684 4b3f 2756 c2bf 9235 66c0 f9c5 bbbf
00000270: ef2a 893d acfe 493e 74d0 d8bc c65c 0e3f
00000280: e94c 483e 397c cd3f df1f 8f3e 61e1 a5be
00000290: 2290 0fbd 4783 cf3f ec38 6b40 2e96 4bc0
000002a0: bcd3 c13f c56b ad3f a8eb b8c0 4eb4 5cbe
000002b0: 0052 4240 7093 97c0 4c5d 2ec0 b0af 4cc1
000002c0: 44a7 8bc0 31ee 5fc0 3d9a 31c1 0a81 02c0
000002d0: 9479 02c1 c21a e8c0 92a0 4ac0 38f6 4ec1
000002e0: 88db cbc0 ede7 eec0 f3a2 aec0 d1dd febf
000002f0: 29d1 d0c0 b0a4 94c0 6483 0dc1 417d 88c0
00000300: 59fc 643f 2e4b 2ac1 0f02 d4c0 e89c 29c1
00000310: fac8 3cc1 3833 26c1 2222 09bf daa7 9d3e
00000320: 86f9 cf3c 8c12 b4c0 7110 8b3f ed5e a5bf
00000330: 3796 79c0 f328 7d40 fab8 48c1 6ce7 8dbf
00000340: 025d 24c0 b0b7 9e40 bde2 1840 2d32 c5c1
00000350: 4331 dbbf 2bce 1f3f 83c0 b03f c255 4bc0
00000360: 1d6b d140 5fbd c740 7c7c 0ac2 0de0 dabe
00000370: 0601 c4bf ece2 e63f e863 a1bf 2814 0d40
00000380: 0a16 dcbe 8cce dbc0 5e17 2fbf 8057 a240
00000390: ceec c940 257b 9140 c13d 6ac0 2124 89c0
000003a0: e4bd 06c0 fdd3 28c0 f736 c7bd 3bea 09c1
000003b0: 21a9 ca40 4b79 90bd d7bb 98c0 55c4 94c0
000003c0: ed9c a740 40c3 a4bf e99c 0140 6948 9c3f
000003d0: 7f92 733f 188d 65be 45b1 8fbe 3f14 993f
000003e0: e9c5 d9be d88a 3f40 cdef 10c1 acc9 bdc0
000003f0: 86c3 8dbf 09f5 0fc1 05b1 d7be 327c d63f
20.644207 6.8120394 -13.013782 7.844687 -0.3005628 -3.6851678 5.7124767 5.4382095
12.029262 -2.897364 -0.7671829 6.97399 -1.4368508 12.298379 0.029122816 -3.6700616
-1.0206376 -1.7375292 3.7488708 -5.5171394 -2.560563 1.5013628 -1.0175889 0.32408425
-1.434429 -5.361569 3.9435296 2.0324543 -1.8926847 0.10124526 -3.1420996 0.9512318
-0.55122036 -16.480469 -8.009661 0.44242918 2.5006797 -2.1653779 -0.7026301 2.2982597
0.005946465 6.123609 -0.98883784 -7.837299 -2.1226246 -7.0596614 -8.230056 -1.0854741
-0.899666 0.07142144 -0.36388463 0.22136162 1.0460886 -0.44769022 -2.6813202 1.9858057
-1.283682 -0.0006206023 -1.0389622 -2.026876 3.0617673 13.243021 -3.816623 -7.475805
2.814123 -6.0926466 -1.3913152 -4.18543 -2.7248437 -2.0952778 6.1949306 -4.339747
-1.0927004 -1.1218513 2.8130884 -1.8077258 -1.228715 -14.084838 -11.129814 6.8492045
1.5519898 -9.51694 0.93486613 -4.2480273 4.6829243 -7.2609806 2.757396 -10.748297
-16.264595 -0.11046669 2.9629557 -6.168091 -7.533538 -15.514399 3.157961 -0.77485406
-11.29847 -0.33567652 -12.152227 7.160248 2.1322093 3.5938082 2.6344178 3.386992
6.7942047 -6.0567617 -1.7325292 -1.234003 0.63189495 14.194694 -37.4164 -12.480685
-0.8888724 1.2638875 -0.50631565 2.6761334 1.5134407 -2.2628489 -0.9487336 -4.462486
-6.5259047 0.8814707 5.260394 -0.9442121 1.5330105 2.2249901 -3.7137852 4.707704
5.8311057 -0.08776154 4.9825597 -0.5957175 -3.70045 -1.1349717 2.7245076 0.23095824
-5.658341 -12.600806 2.5899844 -5.0096364 -0.2526136 1.9129107 -4.3609576 -1.8643299
1.8087507 -3.8014438 -1.770715 1.0722495 5.3792706 -5.2402806 1.0108937 -4.2312446
0.7949852 -1.5182542 -3.5970197 -1.4669791 0.06697642 0.19726056 -0.026466586 0.5561031
0.19560589 1.6053535 0.27954003 -0.32398513 -0.035049565 1.6211938 3.6753492 -3.1810412
1.5142741 1.3548514 -5.7787666 -0.21553156 3.036255 -4.7367477 -2.7244444 -12.792892
-4.364168 -3.498913 -11.100156 -2.039126 -8.154682 -7.2532663 -3.1660504 -12.935112
-6.3705482 -7.4658113 -5.4573913 -1.9911443 -6.5255322 -4.6451035 -8.844578 -4.26529
0.8944755 -10.643354 -6.6252513 -10.600807 -11.799067 -10.387505 -0.5356771 0.30792123
0.025387537 -5.627264 1.0864393 -1.2919594 -3.8997934 3.9556243 -12.54516 -1.1086249
-2.5681767 4.959923 2.388839 -24.6495 -1.7124408 0.6242396 1.380875 -3.1771092
6.5443254 6.2418666 -34.621567 -0.42749062 -1.5312812 1.8038001 -1.2608614 2.2043552
-0.42985564 -6.8689632 -0.6839503 5.073181 6.310157 4.5462823 -3.6600192 -4.2856603
-2.10534 -2.6379387 -0.097272806 -8.619685 6.3331456 -0.07054385 -4.7729297 -4.6489663
5.237906 -1.2872086 2.025202 1.2209598 0.9514541 -0.22417104 -0.28064933 1.1959304
-0.42533806 2.9928493 -9.058545 -5.930868 -1.1075294 -8.997323 -0.42127243 1.6756651

bias f4 [50]
00000000: a727 7ebd c972 cc3f f6e0 e7bf 810c debe
00000010: 7bc7 96bd ac14 d6bd 4972 74bf 857a 1c3e
00000020: d160 60be 7af8 9bbd 7e6d ecbe ab1b f9bf
00000030: 5754 14be e1e1 d7bd d06e 1240 3c55 40be
00000040: f89b b5bd 2474 0abe 505b c0bc 06c9 92bd
00000050: 2cf1 d3bc 1d06 40be d49f 1bbe 2c0e e4bd
00000060: 52cb 0cbd 341a dbbe 008e aebb 86f0 693e
00000070: 0ef1 1cbe d0e9 f1bd 3668 bbbd 6465 74bd
00000080: 9826 c43d c23c 3cbd a49a 1340 976b 2ec0
00000090: aa5b 35be 65d8 c73e e462 89bd fbbd 6a3f
000000a0: e2ee 25bd d339 b03e 3066 08be 70b1 243f
000000b0: 39c5 a73f 7f84 9ebf 7c5c 2fbe f885 25bd
000000c0: 4712 583f 2008 3cbd
-0.062049534 1.597253 -1.8115528 -0.43368915 -0.07362267 -0.104531616 -0.95486885 0.15281112
-0.21911933 -0.076157525 -0.46177286 -1.9461569 -0.14485298 -0.1054113 2.2880135 -0.18782514
-0.08867639 -0.13520867 -0.023481041 -0.071672484 -0.025871836 -0.18752332 -0.15197688 -0.111355156
-0.03437359 -0.4279343 -0.0053269863 0.22845659 -0.1532633 -0.11812174 -0.09150736 -0.059667006
0.09577674 -0.04595638 2.3063135 -2.7253168 -0.17710748 0.39032283 -0.06708315 0.9169614
-0.04051102 0.34419116 -0.13320231 0.6433325 1.3107063 -1.2384185 -0.17125124 -0.040410966
0.8440289 -0.045906186

weight f4 [30, 50]
00000000: 0620 02be d29c 6ebd 98f9 88bc 5f39 b0bd
00000010: d9fb 063e 3efb 57be 30da acbb 76df 0abe
00000020: deeb 69be e4ec d53c c5f2 dbbd 0401 c2bd
00000030: e6cf 6dbe 10ee 69bc ab60 0e3e 0c99 47be
00000040: 5276 bfbd 488c 3dbe 687a 07bc d25c e03d
00000050: 80ae 9a3a c285 f43d e9df 0f3e f61e b8bd
00000060: f2c2 c7bd f1dc dcbd 0090 18bc 5146 1fbe
00000070: ba25 6dbe c850 83bc 2480 a5bc 0644 a6bd
00000080: d616 f03d 127a 6cbd 56b7 06be 0003 b4bd
00000090: 905e 35bd cc24 d83d cc3f 0dbd 307f f2bb
000000a0: 8b1c c9bd b415 5abd 29d5 02be f6e0 39be
000000b0: d645 07be b22c b9bd d2f3 f43d 284f b6bc
000000c0: ab21 51be eecd 81bd 06e3 4640 64b4 2d41
000000d0: a6c7 873f 5eb5 7540 b8ea d53c bb6f 683e
000000e0: 109a ca3f c5a1 b83f cb57 cf3f 58dc 503c
000000f0: 0891 3540 a365 c940 806f 093a feac 23bd
00000100: 72b6 3240 06c3 033e a9f5 a9bd 2498 663e
00000110: e877 1a3d e823 a63c 9494 a7bc 54a7 0dbe
00000120: 481f 893c 9c1f 443e 982c 223e 1056 1540
00000130: 5495 1b3e 4386 7d3f d0ed 1f3e be46 e93d
00000140: e276 c33d 64fa a03d 9dc9 a43f a267 18bd
00000150: 7940 4d40 f75b 9640 8437 173e f6cb 8540
00000160: 6de9 e53d a61f 8e40 9a91 1a3e 1609 7740
00000170: 6269 6a3d 59ec d040 b4e6 be3f 1e6b da3f
00000180: 0ca2 1c3e 5dca ee3d 131f 8d40 90b5 fd3c
00000190: b9d8 adc0 2601 2541 171c 71c1 7dbc 43bf
000001a0: 9ce9 49be 9949 92bd 75a5 dcc0 c9e6 b3bf
000001b0: 1490 b5be b432 14be 1249 0641 89e9 1a3f
000001c0: 38db 92bc a056 663d fd4e 6440 6246 04be
000001d0: 2fd8 9dbd 1ecb 143d 6493 83bc 3412 1c3d
000001e0: 5e8b 1cbe 2c97 ca3d 7b8d 57be 493a 08be
000001f0: 4c4c 86bc c302 603f 00dd 193a 2c3a 883d
00000200: af20 a1bd 9b4d 30be ad53 b0bd 508f 913c
00000210: 348d 093f 356e e6bd e8c5 6440 0b3b 2140
00000220: 0dfb db3d 7c16 0041 5853 953c f88e 2940
00000230: 5af2 043d 8060 b9be cb07 1f3e 2c5e c0bf
00000240: 9cf8 8d40 8f94 1341 dcc3 a6bd feb3 49be
00000250: 5339 c340 68c5 dfbd 9e50 4040 5688 2d41
00000260: a0b8 6a3f ea35 7140 9083 fcbb f806 6a3e
00000270: 2258 c23f f2c5 ac3f 2284 b93f 8666 6a3e
00000280: 27f0 3a40 34c4 c240 9a1e ba3d 3053 fb3b
00000290: a042 3040 0aa2 063d 7c06 243d 4499 14be
000002a0: 4045 ff3b 58d7 d43c 8a8c 20bd eec9 4abe
000002b0: c62d 1cbd 7036 71be 0fbb aa3d a64b 1640
000002c0: fa76 fb3d 6356 603f 5154 873d 9ed2 a23d
000002d0: 24d9 223e 4043 b13b c736 a63f c499 233e
000002e0: bff9 4640 8411 9740 02bc d4bd 000f 8540
000002f0: d004 2e3d c653 9040 7cf7 c8bc bb19 7540
00000300: a0de 79bb 00bc cc40 e481 b23f 911c b83f
00000310: e800 1e3c 5c74 273e f6dd 8540 ed29 723e
00000320: 76d9 85bd 6432 69be c3c9 b9bd c05d 69be
00000330: 1327 2cbe 4890 cc3c 4c75 41be 6385 98bd
00000340: 3f70 c2bd 5037 debb 4ce2 47be 17da 66be
00000350: 1885 37bd 8006 73bc 546b 33be 3293 0dbd
00000360: 6287 dbbd 0ce1 21be 7684 65bd 9072 45bc
00000370: 20ca fc3b fd3a 093e 9587 41be e08c 723b
00000380: 4f03 b5bd 8848 1ebc fce7 0abd 0393 dfbd
00000390: 1b03 90bd 944b 7dbd 2817 73bd 3c68 3e3d
000003a0: b0b2 c2bb 2a97 09be c07f 8abd 8f9c a0bd
000003b0: 0042 06be 3c57 5bbe d621 81bd c0e8 80bc
000003c0: 6ccc 6bbe eed3 6cbe e487 58bd 77c9 dbbd
000003d0: e3b9 e2bd ea03 2fbe 4841 003c 5ca5 f5bc
000003e0: d90f dabd 01aa 53be d56c 3f40 7ae1 2b41
000003f0: 697c 7c3f f920 7340 9052 d03b a00a 72bb
-0.12707528 -0.058255024 -0.016720578 -0.08604693 0.1318201 -0.21091935 -0.0052750334 -0.13561806
-0.22843882 0.026113935 -0.10739664 -0.0947285 -0.23223838 -0.01427795 0.13904063 -0.19491976
-0.0934874 -0.18510544 -0.00826893 0.10955204 0.0011801273 0.11939575 0.14050259 -0.0899028
-0.0975398 -0.10784329 -0.009311676 -0.15554167 -0.23158923 -0.01602973 -0.020202704 -0.08118443
0.117231056 -0.057733603 -0.13155875 -0.08789635 -0.044279635 0.105538934 -0.03448467 -0.007400416
-0.09819897 -0.053243354 -0.12776627 -0.18152222 -0.13210234 -0.09041728 0.119605675 -0.022254542
-0.20423 -0.06338106 3.1076064 10.856541 1.0607803 3.8391948 0.0261129 0.22698872
1.5828266 1.4424368 1.6198667 0.012747847 2.836977 6.293657 0.000524275 -0.0399599
2.7923856 0.12867364 -0.08298809 0.22518975 0.037712008 0.020280793 -0.02045659 -0.13833362
0.016738549 0.19152683 0.15837324 2.3333778 0.15193683 0.9903299 0.15618062 0.11390446
0.095441595 0.07860258 1.2874027 -0.037208207 3.20706 4.698726 0.14767271 4.1811476
0.11226163 4.4413633 0.15094605 3.8599296 0.057229407 6.528851 1.4914155 1.706394
0.15296191 0.116596915 4.4100432 0.030970365 -5.4327054 10.31278 -15.069358 -0.76459485
-0.19718021 -0.07142944 -6.8951974 -1.4054805 -0.35461485 -0.14472467 8.392839 0.60512596
-0.017926797 0.056234956 3.567321 -0.12917474 -0.077072494 0.03632652 -0.016061492 0.038103297
-0.1528754 0.09892115 -0.21050064 -0.13303484 -0.016393803 0.87504214 0.00058694184 0.066517204
-0.07867562 -0.17217104 -0.0860971 0.017768532 0.53731084 -0.11251489 3.5745792 2.5192287
0.107412435 8.005489 0.018228218 2.6493511 0.032457687 -0.36206436 0.15530317 -1.5028739
4.436598 9.223769 -0.08142826 -0.19697568 6.1007476 -0.10926324 3.0049205 10.845785
0.91687965 3.7689157 -0.007706113 0.22854221 1.5183146 1.3497908 1.4493449 0.22890672
2.9209077 6.0864506 0.09087868 0.007669829 2.7540665 0.032869376 0.040045246 -0.14511591
0.0077902377 0.02598159 -0.03919653 -0.19803593 -0.03812959 -0.23555923 0.0833646 2.3483672
0.12278552 0.87631816 0.06607879 0.07950328 0.15903145 0.005409628 1.2985467 0.15976626
3.1089933 4.720888 -0.10387422 4.158081 0.04248506 4.5102262 -0.024532072 3.8296955
-0.003812708 6.397949 1.394589 1.4383718 0.009643771 0.16352981 4.183345 0.23648806
-0.06535618 -0.22773129 -0.09071686 -0.22789669 -0.1681178 0.024971142 -0.18892401 -0.074473165
-0.094940655 -0.006781496 -0.19519919 -0.22544132 -0.044804662 -0.014833093 -0.17521411 -0.034564205
-0.107191816 -0.15808505 -0.056034528 -0.01205124 0.007714525 0.13401408 -0.18899377 0.0037010238
-0.08838522 -0.0096608475 -0.033912644 -0.10916712 -0.07031842 -0.061839655 -0.059348255 0.046486124
-0.0059417114 -0.13436571 -0.06762648 -0.07842361 -0.13111115 -0.21419996 -0.06305282 -0.015735984
-0.230272 -0.2312772 -0.05286397 -0.10731786 -0.11070611 -0.17091337 0.007828064 -0.029986076
-0.10647554 -0.2067032 2.9910176 10.742548 0.98627335 3.7988875 0.0063574985 -0.0036932603

bias f4 [30]
00000000: 47fa 93be 62fc a9c0 b502 2cc1 5461 b4c0
00000010: eb06 acbd 752e b2c0 5eb0 35c1 89ed a2c0
00000020: 4725 9fc0 d016 a9bc f276 52bd 73ce b4c0
00000030: 0edd 29be 896e 09c1 5e33 66c1 f235 10bd
00000040: 8102 1ebf a0e5 2fbe 92ee 33be 51cb 45c1
00000050: a4ca 2abe a8d4 c3c0 1674 5bbe ab66 4abe
00000060: 693d 58be 47e4 a6c0 5afa 7dbe 4566 73be
00000070: 799c aec0 487b c2bd
-0.28901884 -5.3120584 -10.750661 -5.636881 -0.08399757 -5.568171 -11.355558 -5.091496
-4.9733005 -0.02064076 -0.051382966 -5.6502013 -0.16588232 -8.589486 -14.387541 -0.035207696
-0.6172257 -0.17177439 -0.17571476 -12.362138 -0.16678864 -6.119709 -0.21431002 -0.19765727
-0.21117176 -5.215366 -0.24802533 -0.23769481 -5.4566007 -0.0949617

weight f4 [15, 30]
00000000: a26b 383e ac0c 1440 532a 5040 c9f0 0340
00000010: 2cda 5e3d 4eb8 0540 ac84 0b41 69e9 2140
00000020: 412e 3440 18fc 893e 15d9 9cbd eb99 f83f
00000030: bca8 623e c1ef ca3f d8b5 2d41 dc64 473d
00000040: 1d8c 56c1 6060 723c 3075 f93b 501b 8941
00000050: 73ad ab3d b1b7 dc3f 7cda 5c3e 7401 313e
00000060: 126e 4bbd e579 1540 5883 1dbe 82a6 dbbd
00000070: 5d74 0340 9a8e 0a3d c8fe e83d 802b 20bc
00000080: 22ee 833d 3035 4a3d 0d15 f6bd 1172 82be
00000090: 802d 4abd cbd2 813d c818 42bc 98b8 473d
000000a0: a057 e33d 48d3 33bc 1541 d9bd 0c8a d13d
000000b0: fa86 72bd 6e62 9bbd cfd8 cabd 42d7 173e
000000c0: e034 a63d 0007 e43b a220 f9bd 1a0e 70bd
000000d0: 5e2d 15be 0c1b 45bd ac71 c03d 36df 4d3d
000000e0: 539d adbd 38cd 0ebd 1a5a ffbd 50b9 0e3c
000000f0: 32cc 12be 9408 0f40 8f3b 3a40 fe3a 0840
00000100: de59 743e 6955 f93f fee4 0741 97a8 1240
00000110: 2417 3240 9e7a 623e 4206 c13d c41e 0240
00000120: 4f3c a3bd 206f cd3f b978 2b41 f9e1 293e
00000130: fbc7 56c1 067a 563e 6dfe 163e a5c7 8841
00000140: b1e7 193e fad9 be3f d0f2 4cbd dac2 a93d
00000150: 94ec 153e 5309 1c40 babc 31be 365d 323e
00000160: 0959 0b40 fb8b db3d 16bd 273d 92ec 64be
00000170: a0c0 67be ca38 3abd 829c 30bd 56d8 3cbd
00000180: 2dc5 56be 7e3b 18be a475 2ebe 085c 013d
00000190: abd4 83bd a063 243c 0c11 37be 1684 57be
000001a0: 54a4 103d b972 fdbd e004 013d 90fd d4bc
000001b0: dc77 af3c 500e ccbc c004 c73a c674 85be
000001c0: 7c01 593d e0db bf3b f329 a23d 165e 62be
000001d0: e8f1 ac3c d8fb 51bd a70e 56be 587a 5ebe
000001e0: 52d8 2bbe 0498 bcbd 0882 3fbc 7b6f 68be
000001f0: 704e d8bc 20b0 d73c ae48 063d 00bc 71be
00000200: 2af4 5abe dd50 c8bd 46ed 693d 3336 8fbe
00000210: 2400 8d3d 1f4e 8e3d 3842 303e b4ce f4bc
00000220: 3cac fdbd 46af 7a3d 70e2 15be a008 3ebe
00000230: f448 0bbe f290 30be 780c ccbc 000f 34bd
00000240: f5ec 81be 664d 6bbe 9ffb d3bd 08c1 57bd
00000250: 8048 f1bb 396e edbd ebd2 97bd 6d6c b8be
00000260: 3363 80be e72f 40be 0c76 b23c f27b 64be
00000270: ac49 a43d 91bf e8bd e2ee bdbe 4085 25bc
00000280: 7e62 783d ae79 6dbe 8480 503d f23a 05be
00000290: f1d8 bebd f5e9 9fbd 9413 8e3d e863 a9bc
000002a0: 2ec0 0c3d 20a1 1cbc 6034 9dbc 8ef5 6dbe
000002b0: 8459 2cbe 9430 843d 9aea 8abe 2623 3abd
000002c0: 2573 c4bd 083a 2abe ec41 06bd caca 57bd
000002d0: a0f1 0a3c f5b1 2140 ac4d 4140 1a94 0840
000002e0: b2f3 9ebd 6bcd 1240 2623 0a41 d6df 2a40
000002f0: 6175 3740 a7b3 893d db19 023e d194 0240
00000300: 6099 453b feab d23f 16c5 2a41 84cd 62bd
00000310: 1e0f 54c1 ddb9 c03d f862 363c a708 8841
00000320: e224 713d b1e7 e43f 8cd8 813e 88d9 6dbc
00000330: 7097 bdbd a7b3 1d40 c2b5 0dbe 14ac a33d
00000340: d943 1b40 c03b d63a ea44 72be 3cd5 97bf
00000350: 4a00 1740 595c 78bf 10fd b03c 922f 9dbf
00000360: 491e 1541 d19c 8fbf 32d6 75bf 40a7 7abc
00000370: d897 eb3c 79ff 88bf 7220 893e 5d78 b83f
00000380: dc7b 2c41 d05a e83d 8858 80c1 3c4a a93d
00000390: 80ca 683b 5c07 8541 aeb8 433d 3f64 aebf
000003a0: 8c8f 2abd 59c9 91bd e45d acbc fef4 8abf
000003b0: 72f2 52bd 2706 02bd 5ee7 95bf 67e9 0bbe
000003c0: cc4a f83d 9e67 77bd 9802 13bd 3801 5b3c
000003d0: 8073 2f3b a92e ccbd 9431 77bd c013 fa3c
000003e0: 2409 cdbc b2a1 73bd 23e2 2abe e88c 423d
000003f0: 46e8 e3bd b070 153d de67 c3bd 64b4 a93d
0.18009809 2.3132734 3.2525833 2.0615714 0.054407284 2.089374 8.719891 2.5298712
2.815323 0.26950145 -0.076585926 1.9421972 0.2213468 1.5854417 10.856895 0.04868017
-13.409207 0.014793485 0.007612847 17.138336 0.08382692 1.7243558 0.2156772 0.1728571
-0.049665518 2.3355649 -0.15382135 -0.10725118 2.0539773 0.0338274 0.11376721 -0.009775996
0.064419046 0.04936713 -0.12015734 -0.2547765 -0.0493598 0.06339034 -0.011846729 0.048760027
0.111006975 -0.010975666 -0.106081165 0.102314085 -0.059210755 -0.07587133 -0.09904634 0.14828208
0.08115554 0.0069588423 -0.12164427 -0.0586072 -0.14568087 -0.048121497 0.09396681 0.0502617
-0.08477273 -0.03486368 -0.124683574 0.008711174 -0.14335707 2.2348986 2.9098852 2.1286006
0.23862407 1.947919 8.493406 2.29154 2.7826624 0.22117087 0.09425022 2.0331278
-0.07970487 1.6049538 10.716973 0.16590108 -13.423823 0.20944986 0.14745493 17.097483
0.1502979 1.4910271 -0.05003625 0.08289118 0.14641029 2.438069 -0.1735715 0.1741837
2.1773093 0.107200585 0.04095181 -0.2235587 -0.22632074 -0.045464315 -0.043118007 -0.04610475
-0.20973654 -0.14866444 -0.17037064 0.03158191 -0.064370476 0.010033518 -0.17877597 -0.2104648
0.035312966 -0.12375397 0.03149879 -0.025999814 0.021419458 -0.024909168 0.0015183911 -0.26065654
0.05297993 0.0058550686 0.079181574 -0.22106203 0.021111444 -0.051265568 -0.20904027 -0.21726358
-0.16781738 -0.09208682 -0.011688717 -0.22698776 -0.02640459 0.0263291 0.032784157 -0.23606873
-0.21382204 -0.097810484 0.057111047 -0.27971038 0.068847924 0.06948494 0.1721276 -0.02988372
-0.12386367 0.06120231 -0.1463716 -0.18557978 -0.13602048 -0.17242792 -0.02490829 -0.043959618
-0.25376096 -0.22978744 -0.10350727 -0.052674323 -0.007363379 -0.11593289 -0.07413276 -0.36020222
-0.25075683 -0.18768273 0.021784805 -0.22312906 0.08021864 -0.113646634 -0.37096316 -0.01010257
0.060640804 -0.23190948 0.050903812 -0.13010767 -0.09318722 -0.07808296 0.06937328 -0.020677522
0.034362964 -0.0095599 -0.019190013 -0.23238203 -0.16831023 0.06454578 -0.27132112 -0.045443676
-0.095922746 -0.166237 -0.03277771 -0.05268363 0.008480459 2.5264866 3.0203657 2.1340394
-0.07761325 2.2937877 8.633581 2.6699119 2.8665392 0.06723719 0.12705176 2.040333
0.0030151233 1.6458738 10.673117 -0.055371776 -13.253691 0.094104506 0.011131994 17.004225
0.058873065 1.7883207 0.25360525 -0.0145171955 -0.092574 2.46409 -0.13838866 0.07991806
2.426016 0.0016344711 -0.23659101 -1.1861949 2.3593926 -0.9701591 0.021605045 -1.2280142
9.319894 -1.1219732 -0.9602996 -0.015298665 0.028758928 -1.0702964 0.26782566 1.4411732
10.780239 0.11345446 -16.043228 0.08266112 0.003552109 16.628593 0.047783546 -1.3624343
-0.041640803 -0.07118482 -0.021040864 -1.0856016 -0.051500745 -0.03174415 -1.1711233 -0.13663255
0.12123641 -0.06040155 -0.035891145 0.01336699 0.0026771724 -0.09969837 -0.060350016 0.030526996
-0.025028773 -0.059480377 -0.16687827 0.04749766 -0.11128287 0.03648442 -0.095412955 0.0828636

bias f4 [15]
00000000: 2bb6 353e c70d 88be a66d a73e 2415 d1bc
00000010: a8d6 7ebd 3221 7ebd a95f dc3e 9f18 9dc0
00000020: a562 23be 7057 9f3e 4df8 d1bd 7e11 74bd
00000030: dbe2 2d3e e3cb ccbd 82b3 54bd
0.17745273 -0.2657301 0.32700843 -0.025522776 -0.06221643 -0.062043376 0.43041733 -4.9092555
-0.15955599 0.31121397 -0.10252438 -0.059586994 0.1698107 -0.09999826 -0.051929004

weight f4 [1, 15]
00000000: eafb 4340 cd22 b3bd da8a 3e40 26df 10be
00000010: 0e58 e6bd 943d 813c 37a7 4f40 424d 2340
00000020: f454 e83c bf36 3f40 ff0f cabd 773e 8abd
00000030: 2137 3e40 7457 27be fc91 563d
3.0622506 -0.08746872 2.9772248 -0.14147624 -0.11247264 0.015776433 3.244581 2.5515904
0.028360821 2.9877164 -0.09866332 -0.067501955 2.9721148 -0.16341954 0.052385315
