data/train/neural_network_pytorch_model_cars_price_prediction.pth (torch, 33476 bytes, 7 tensors)

0.weight f4 [50, 107]
0	0xc0d5c277	-6.6799884
1	0x421de191	39.47028
2	0xc210b00e	-36.17193
3	0xc1cae366	-25.361034
4	0x40afaf59	5.4901547
5	0x3fa095da	1.2545731
6	0x417b1dbd	15.69476
7	0xc1a8995a	-21.074879
8	0x3e32067d	0.17385288
9	0x418c7f82	17.56226
10	0x400fa44a	2.2444024
11	0x3f9dd962	1.2331965
12	0x4158fd9b	13.561915
13	0x406ba71d	3.6820748
14	0xc0bdb2af	-5.928062
15	0x407407a8	3.8129673
16	0x41aad9bd	21.356318
17	0x41041bc9	8.2567835
18	0x40fa5506	7.822879
19	0xbf7e41f8	-0.9931941
20	0x4134fbd8	11.311485
21	0x410d0622	8.813997
22	0x4169a6b1	14.603196
23	0xc09c47c9	-4.883763
24	0x4025bcd4	2.5896502
25	0xc1c14e15	-24.163126
26	0x41e3116b	28.383505
27	0xc21312f0	-36.768494
28	0x3fe5c526	1.795079
29	0x4080889d	4.0166764
30	0xc10062c2	-8.024111
31	0xc21ba566	-38.911522
32	0xc19d6eeb	-19.67916
33	0xc095374f	-4.6630015
34	0xc181f963	-16.24677
35	0xbfe89f0e	-1.817354
36	0xc1c07814	-24.058632
37	0xc0d8701f	-6.7636867
38	0x41b39035	22.445414
39	0x420ed0fd	35.70409
40	0x40d72787	6.723575
41	0xc11c3c91	-9.764787
42	0x4130483b	11.017634
43	0x41be9603	23.823248
44	0xbe3ea535	-0.18617709
45	0xc0b465b3	-5.6374145
46	0x40da08c4	6.81357
47	0x3f2c6dd5	0.6735509
48	0xc0d676b8	-6.701992
49	0xc0ef04d7	-7.469341
50	0x3fa514a6	1.2896926
51	0x4080bd9a	4.0231447
52	0x40130d83	2.2976997
53	0x3e1073fa	0.14106742
54	0x403cb2a7	2.948404
55	0xbff14f62	-1.8852351
56	0x40cfa52e	6.4889135
57	0x3f9b363e	1.2125928
58	0xc14c8a4e	-12.783766
59	0xbf33bf9c	-0.7021425
60	0x3f0fa40d	0.56109697
61	0xc22d6b0c	-43.354538
62	0xc29446da	-74.13838
63	0xc26f8b18	-59.885834
64	0xc2777eac	-61.873703
65	0xc269f7e5	-58.492085
66	0xc2779724	-61.8976
67	0xc26bb5ff	-58.92773
68	0xc281d07b	-64.90719
69	0xc28a7d88	-69.24518
70	0xc2546333	-53.096874
71	0xc2837aa5	-65.73954
72	0xc268aa72	-58.16645
73	0xc28a8e67	-69.27813
74	0xc27c9c61	-63.152714
75	0xc27cb9e9	-63.181553
76	0xc26fdc6f	-59.965267
77	0xc26dcddb	-59.45103
78	0xc264e9bd	-57.22826
79	0xc2880f19	-68.02949
80	0xc2596c41	-54.355717
81	0xc28fbb13	-71.86538
82	0xc21a09fd	-38.509754
83	0xc22b2d66	-42.794334
84	0xc2518abe	-52.38549
85	0xc23c07c7	-47.007595
86	0xc2a4f6df	-82.48217
87	0xc2380a63	-46.010143
88	0xc259020b	-54.251995
89	0xc26d9468	-59.394928
90	0xc22a90de	-42.64147
91	0xc23a6b67	-46.604885
92	0xc27187fc	-60.382797
93	0xc243746a	-48.863686
94	0xc2715875	-60.336384
95	0xc261c001	-56.437504
96	0xc281a4d4	-64.82193
97	0xc25dc1ec	-55.439377
98	0xc29a8636	-77.26213
99	0xc286bf48	-67.3736
100	0xc18d2050	-17.640778
101	0x4136c25d	11.422452
102	0x41da2502	27.26807
103	0x42163e8c	37.56108
104	0xbe4b8362	-0.19874337
105	0x41d9dd72	27.233128
106	0x421c7b1e	39.12023
107	0xbe3295c5	-0.17439945
108	0xbd8c687d	-0.06855867
109	0xbdf30673	-0.118664645
110	0xbdbebd69	-0.09313471
111	0xbd0dbf1c	-0.034606084
112	0xbc55c448	-0.013047285
113	0xbe33601e	-0.17517135
114	0xbd8143e9	-0.06311781
115	0xbe34fe24	-0.17675072
116	0xbe17a82e	-0.14810249
117	0xbd8366bc	-0.064160794
118	0xbd2114a8	-0.03932634
119	0xbca68dc0	-0.020331264
120	0xbe230795	-0.15920861
121	0xbb5df0a0	-0.0033865348
122	0xbe1a2197	-0.15051876
123	0xbd8c0653	-0.06837144
124	0xbd695486	-0.056965373
125	0xbd0b01f6	-0.033937417
126	0xbe07a26c	-0.13245553
127	0xbd142c28	-0.036174923
128	0xbda256c5	-0.07926706
129	0xbe1bd900	-0.15219498
130	0xbe366af6	-0.1781424
131	0xbe38c436	-0.18043599
132	0xbd58b718	-0.052908987
133	0xbe35747e	-0.1772022
134	0xbe48b571	-0.19600464
135	0xbd23f5e6	-0.04002943
136	0xbe2ebab3	-0.17063408
137	0xbc25c730	-0.010118291
138	0xbd7048e8	-0.05866328
139	0xbe46c0e7	-0.19409524
140	0xbc0f7518	-0.008755945
141	0xbdabba55	-0.083851494
142	0xbe00121e	-0.12506911
143	0xbdbf099f	-0.09328007
144	0xbcffb7d8	-0.031215593
145	0xbde5e806	-0.112258956
146	0xbdc1ff3b	-0.094725095
147	0xbdf8eb61	-0.1215427
148	0xbd607a68	-0.054804236
149	0xbd85eeac	-0.06539664
150	0xbe0b2172	-0.13586977
151	0xbd9fce96	-0.07803075
152	0xbdbeb35a	-0.09311552
153	0xbd4474dc	-0.04796301
154	0xbc7e7568	-0.0155309215
155	0xbe38ce79	-0.18047513
156	0xbd1ae020	-0.0378114
157	0xbddc9701	-0.10770989
158	0xbe3f682e	-0.18692085
159	0xbcc56950	-0.024098068
160	0xbbfd2e60	-0.0077264756
161	0xbd72a4ba	-0.059239127
162	0xbd84bc59	-0.06481237
163	0xbddd103f	-0.10794114
164	0xbbaf8570	-0.005356483
165	0x3da25a52	0.079273835
166	0x3d73a57c	0.05948399
167	0xbd9f5cac	-0.07781348
168	0xbe258c84	-0.16166884
169	0x3da7eee9	0.08199865
170	0x3d87bb72	0.06627549
171	0xbba508d0	-0.005036451
172	0xbe32c159	-0.17456569
173	0xbdad0569	-0.084482975
174	0xbd18b92b	-0.037285965
175	0xbc5f0358	-0.013611637
176	0xbda65552	-0.08121742
177	0x3ca9bef4	0.020720936
178	0x3ca76744	0.020434983
179	0xbdf286c2	-0.11842109
180	0x3d4113d1	0.04713804
181	0xbdbaecbc	-0.09127185
182	0x3e232625	0.1593252
183	0xbdbacb2d	-0.09120784
184	0xbd94694a	-0.07246645
185	0xbe23db85	-0.16001709
186	0x3bba5a00	0.0056869984
187	0xbd20701e	-0.039169423
188	0x3d52cc4a	0.051464356
189	0xbce7a398	-0.02827625
190	0xbda26b81	-0.07930661
191	0xbd620862	-0.055183776
192	0xbb982540	-0.0046431124
193	0x3d139556	0.03603109
194	0x3dba3cfa	0.090936616
195	0xbd4e7b48	-0.05041054
196	0x3cd3c3c8	0.025850192
197	0x3ad78100	0.0016441643
198	0xbceb9308	-0.028756633
199	0x3e332e7e	0.17498204
200	0x3d730f0c	0.05934052
201	0x3da99762	0.08280827
202	0xbd939f57	-0.07208126
203	0xbd202b50	-0.039103806
204	0x3cb0ba18	0.021573111
205	0x3c13a168	0.00901065
206	0x3b6dfcc0	0.003631398
207	0x3e1fc3bd	0.15602012
208	0xbdfc2442	-0.12311603
209	0xbc26dea0	-0.010184914
210	0xbd10ff0c	-0.03539948
211	0xbde398e9	-0.1111315
212	0xbd67523c	-0.05647491
213	0x3dd8103d	0.10549972
214	0x3d0090f0	0.031388223
215	0xbd7d2872	-0.06180615
216	0xbd4085a7	-0.04700246
217	0x3d8f2d10	0.06991017
218	0xbc1a5560	-0.009419769
219	0xbc8d236c	-0.017228805
220	0x3d7a1e24	0.0610639
221	0x3c79feb8	0.015258484
222	0xbda7f0d1	-0.08200229
223	0xbcae0c30	-0.021246046
224	0xbd36ec64	-0.044659033
225	0xbdabeeb7	-0.083951406
226	0x3d98ea8e	0.07466613
227	0xbd8ad366	-0.06778602
228	0x3dbcaae4	0.09212282
229	0xbd889822	-0.06669642
230	0xbd153d4b	-0.036435407
231	0xbdb260e8	-0.0870989
232	0x3c262d60	0.010142654
233	0xbd9de74e	-0.077101335
234	0x3d28e620	0.04123509
235	0x3d42bfd0	0.047546208
236	0x3d2a75cc	0.041616246
237	0x3d8342e2	0.06409241
238	0x3d8924ce	0.06696473
239	0x3c86d2bc	0.016457908
240	0x3ce974f8	0.028498158
241	0x3d836a5e	0.06416772
242	0x3daaf7a2	0.083480135
243	0xbdbd89e5	-0.09254817
244	0x3d34b0c8	0.044113904
245	0xbd87298e	-0.06599723
246	0x3db10c38	0.08644909
247	0xbd82c175	-0.06384555
248	0xbd53cd0d	-0.051709224
249	0xbd7c3937	-0.061578
250	0x3c7cb028	0.015422858
251	0xbd722332	-0.059115596
252	0xbd720e12	-0.05909545
253	0x3da92b42	0.08260204
254	0xbd65f7ae	-0.05614441
255	0xbd8b03f4	-0.067878634

0.bias f4 [50]
0	0x4107758b	8.466197
1	0xbda08a02	-0.07838823
2	0xbd30829b	-0.043093305
3	0xbd88803f	-0.06665086
4	0xbd83900b	-0.064239584
5	0x3c06d4c0	0.0082294345
6	0xbd80f8da	-0.06297465
7	0xbdcffd04	-0.10155681
8	0x41f16fbe	30.179562
9	0xbd30b952	-0.043145485
10	0xbde66c73	-0.11251154
11	0x4115ffa3	9.374911
12	0xbe2f88a2	-0.17141965
13	0x41977da1	18.936342
14	0xbd83e980	-0.06441021
15	0xc163fd57	-14.249351
16	0xbd87f493	-0.06638446
17	0xbe4697ec	-0.19393891
18	0xbdc5b835	-0.09654275
19	0xbcba0600	-0.02270794
20	0xbe4241ad	-0.18970366
21	0xbd25c396	-0.04046973
22	0x41085bd6	8.522421
23	0xbccf318c	-0.02529218
24	0xbe18748b	-0.14888208
25	0xbc5b9998	-0.013403319
26	0xbb953010	-0.0045528486
27	0xbe25c7a4	-0.16189438
28	0xbdb979d5	-0.09056441
29	0xbcb6faf0	-0.022336453
30	0x41edd0f0	29.72702
31	0x418a3e00	17.280273
32	0xbe45898c	-0.19290751
33	0xc0fe99c5	-7.9562707
34	0x4160cbf2	14.049791
35	0xbe0a9f70	-0.13537383
36	0xbe3c6dea	-0.18401304
37	0xbd32b340	-0.043627977
38	0x418e2519	17.768114
39	0xbd86127a	-0.06546493
40	0xbe37e5be	-0.17958733
41	0xbda24af2	-0.07924451
42	0xbde619b9	-0.11235375
43	0x3d70ef28	0.058821827
44	0xbd0a7330	-0.033801258
45	0xbde55e67	-0.111996464
46	0x413058fa	11.021723
47	0x41166067	9.398536
48	0x40e75238	7.2287865
49	0xbe3349de	-0.17508647

2.weight f4 [30, 50]
0	0xbdf82160	-0.12115741
1	0xbe624aa0	-0.2209878
2	0x3d195c78	0.0374417
3	0xbd4bf41c	-0.049793348
4	0xbdf0a2a9	-0.11749775
5	0x3dbfba7c	0.09361741
6	0x3cec5114	0.028847255
7	0xbdc19785	-0.09452728
8	0xbe1bd4f8	-0.1521796
9	0xbe4cf9ba	-0.20017138
10	0xbd9b3b94	-0.07579723
11	0xbd3e58d2	-0.046471424
12	0xbb7a8b00	-0.0038229823
13	0xbe22a316	-0.15882525
14	0xbe309e67	-0.17247926
15	0xbd383322	-0.04497064
16	0xbdf07eea	-0.11742957
17	0x3d0379e4	0.032098666
18	0xbe11ed95	-0.14250787
19	0xbd1f9bba	-0.03896687
20	0xbdb2d36d	-0.087317325
21	0xbce60f04	-0.028083332
22	0xbe28538e	-0.16438124
23	0xbde86b88	-0.11348635
24	0x3dc7c05c	0.097534865
25	0xbd952dff	-0.07284164
26	0x3d5113ac	0.05104415
27	0xbe20bd4e	-0.15697214
28	0xbd94c9d2	-0.07265057
29	0x3d6c98a4	0.057762757
30	0x3c04a6d8	0.008096419
31	0xbdadcb2f	-0.0848602
32	0xbdf7e7be	-0.12104748
33	0x3cb1a760	0.021686256
34	0xbe45b1a8	-0.19306052
35	0xbe46edb9	-0.19426621
36	0x3ddd15a0	0.1079514
37	0xbb846300	-0.004040122
38	0xbd063254	-0.03276284
39	0xbcfbee54	-0.030753292
40	0xbd8d3e92	-0.068967
41	0xbdd06a3f	-0.10176515
42	0xbddb194e	-0.10698186
43	0x3d6f0480	0.0583539
44	0xbde770a1	-0.11300779
45	0xbd876bb6	-0.06612341
46	0xbd8974eb	-0.067117535
47	0xbd717f6c	-0.05895941
48	0x3b4d1ba0	0.0031296983
49	0xbb1ec840	-0.0024228245
50	0xbcac4614	-0.02102951
51	0x3cc92d74	0.024557807
52	0xbded1d44	-0.115778476
53	0xbe0ac488	-0.13551533
54	0xbe0c7fff	-0.13720702
55	0x3da3906a	0.07986529
56	0xbdf4b46e	-0.11948477
57	0x3d1fd0e2	0.039017566
58	0xbf167d3a	-0.5878483
59	0xbe4e49a2	-0.20145276
60	0xbdda1515	-0.10648552
61	0xbeeb740a	-0.45986968
62	0xbe0532cc	-0.13007659
63	0xbed222c2	-0.41042143
64	0xbe45aa2c	-0.19303197
65	0xbdd5c3ee	-0.10437761
66	0x3dc8d94c	0.09807071
67	0x3d363e98	0.044493288
68	0x3ceb5bd4	0.02873031
69	0xbe3faad4	-0.1871751
70	0xbd520eee	-0.05128377
71	0xbd794e98	-0.06086597
72	0xbe9192ae	-0.2843222
73	0xbe0b5b84	-0.13609129
74	0x3c35d6d8	0.011098586
75	0xbdb2f797	-0.0873863
76	0x3ddee742	0.10883953
77	0xbbd4a060	-0.0064888448
78	0x3dd5da2e	0.10442005
79	0x3d0ced20	0.034405828
80	0xbd8f2578	-0.069895685
81	0xbe35725a	-0.17719403
82	0xbe65458c	-0.22389811
83	0xbe1b619c	-0.15173954
84	0xbea89c58	-0.3293178
85	0x3b7f32e0	0.0038940236
86	0x3d40f398	0.04710731
87	0xbe6b3ade	-0.22971675
88	0xbdfb8572	-0.12281312
89	0xbe031b38	-0.12803352
90	0xbe0436c4	-0.12911516
91	0xbe67ab8e	-0.22624037
92	0xbdae4a6e	-0.0851029
93	0xbd89ec6f	-0.06734549
94	0x3cb89a80	0.022534609
95	0x3c9f5584	0.019449957
96	0xbdcb3db2	-0.09923877
97	0xbe638a7d	-0.22220798
98	0xbec7f6b8	-0.3905542
99	0xbd462fc6	-0.048385404
100	0x4063c74a	3.5590386
101	0xbdbe1487	-0.09281259
102	0x3ddd3afa	0.108022645
103	0x3c0158e0	0.007894725
104	0x3d310420	0.043216825
105	0x3da10fa6	0.07864313
106	0xbddb0816	-0.10694902
107	0x3d1932f4	0.03740211
108	0xbdd2b076	-0.102875635
109	0x3d53e1c0	0.051728964
110	0x3e067b2f	0.13132928
111	0x412957db	10.583949
112	0x3d6d0ed0	0.057875454
113	0x40da234c	6.8168087
114	0x3d0705e0	0.032964587
115	0x3f14858b	0.5801627
116	0x3ddd4628	0.10804397
117	0xbb63b200	-0.0034743547
118	0xbd9b101f	-0.07571434
119	0x3dc8faac	0.09813437
120	0xbdb3fd51	-0.08788551
121	0xbcc52880	-0.024067163
122	0xbf2cd994	-0.675195
123	0xbd96fac9	-0.07372052
124	0xbc98fd4c	-0.018675469
125	0x3df5c62e	0.120006904
126	0x3d4368fc	0.047707543
127	0xbd917973	-0.07103243
128	0x3d4e3320	0.050341725
129	0xbce15b00	-0.027509212
130	0x3fda56cf	1.7057742
131	0xbfd7a702	-1.6847842
132	0x3dd20df0	0.102565646
133	0xc05ee68a	-3.482821
134	0x3ec44f0d	0.3834156
135	0x3dcb4a68	0.09926301
136	0x3cb96910	0.022633106
137	0x3dee414a	0.11633547
138	0xc1b8d86f	-23.10568
139	0xbdbad458	-0.091225326
140	0xbd8b7b42	-0.06810619
141	0x3d29d11c	0.041459188
142	0xbcc518f4	-0.02405975
143	0x3de6c762	0.11268498
144	0x3d613cf0	0.054989755
145	0xbd83d5dd	-0.064372756
146	0x3fbf9415	1.4967066
147	0xc1af01bb	-21.875845
148	0x404c158a	3.1888146
149	0x3dafd58e	0.08585654
150	0xbdc8af75	-0.09799091
151	0x3de4c966	0.11171226
152	0x3c3c0760	0.011476368
153	0xbcb28fa0	-0.021797001
154	0x3b879440	0.004137546
155	0x3dff6a06	0.12471394
156	0x3ddf80f6	0.10913269
157	0xbdf8dd0d	-0.12151537
158	0xbe7e6692	-0.24843815
159	0x3cd0ef08	0.025504604
160	0x3e07c915	0.132603
161	0xbc855690	-0.016276628
162	0xbe0d1a23	-0.13779502
163	0xbe659248	-0.22419083
164	0xbdde2b3a	-0.108480886
165	0xbe06820e	-0.1313555
166	0xbdc2cbe5	-0.09511546
167	0x3ba05220	0.0048926026
168	0x3dfeb8d2	0.124375954
169	0xbda87064	-0.08224562
170	0xbdd0d9fe	-0.10197829
171	0xbd73a566	-0.059483908
172	0xbc52de40	-0.012870371
173	0x3d5ee13c	0.05441402
174	0xbddbe0e2	-0.10736252
175	0x3e064f97	0.13116299
176	0x3cbcfbc0	0.023069263
177	0x3d68a69c	0.056799516
178	0xbcc9f478	-0.024652705
179	0x3e00cf27	0.12579022
180	0xbd8be5c7	-0.06830936
181	0xbd879b77	-0.066214494
182	0x3d5237a4	0.051322594
183	0xbd989b55	-0.07451502
184	0xbe49a181	-0.19690515
185	0x3ca5e708	0.020251766
186	0xbd3ba4e0	-0.045811534
187	0xbd95042d	-0.07276187
188	0xbd9035d8	-0.0704152
189	0xbdfd5474	-0.12369624
190	0xbe079938	-0.13242042
191	0xbdb41846	-0.08793692
192	0x3bfc6c60	0.007703349
193	0xbcc4dc50	-0.024030834
194	0xbc8d51a4	-0.017250843
195	0x3e08e055	0.13366826
196	0xbd8dfc83	-0.069329284
197	0xbde3e012	-0.111267224
198	0xbcfa6de4	-0.030569978
199	0x3e072a35	0.13199694
200	0xbcd98bcc	-0.026555918
201	0xbd436c0e	-0.04771047
202	0x3c2028b0	0.009775326
203	0x3db622b6	0.08893339
204	0x3d9fd51a	0.07804318
205	0x3d85c01c	0.065307826
206	0x3dd63eac	0.104611725
207	0x3d806a50	0.062702775
208	0xbc832340	-0.01600802
209	0x3e0d9565	0.1382652
210	0x3c8e4430	0.017366499
211	0xbc6720d0	-0.014106944
212	0xbc8f8df0	-0.017523736
213	0xbe5bc42c	-0.21461552
214	0x3dbf4cdc	0.09340832
215	0xbd28e640	-0.04123521
216	0xbda82810	-0.08210766
217	0xbd3aec8e	-0.045635752
218	0xbd95be7d	-0.073117234
219	0xbdb8f280	-0.09030628
220	0xbcceeb48	-0.025258675
221	0x3c480aa0	0.012209564
222	0xbe06c41f	-0.13160752
223	0xbe047559	-0.1293539
224	0x3cc83518	0.02443938
225	0xbcf1b494	-0.029505052
226	0x3e0e092f	0.13870691
227	0x3d7e3b44	0.06206824
228	0xbd1bce3c	-0.038038477
229	0x3ddcd37e	0.107825264
230	0xbde835f5	-0.113384165
231	0xbdb96ef6	-0.09054367
232	0xbcd098ac	-0.025463425
233	0xbe0a74e3	-0.13521151
234	0xbdb73d4c	-0.08947238
235	0x3ded334e	0.11582051
236	0xbd36d82c	-0.04463975
237	0x3d7c52ac	0.06160228
238	0xbd8e55c3	-0.069499515
239	0x3ddacc28	0.10683471
240	0x3c9e4848	0.019321576
241	0xbe0039b1	-0.12522008
242	0x3d48c7b8	0.04901859
243	0x3cde5678	0.02714084
244	0x3df2f74e	0.11863576
245	0xbcc881d8	-0.024475977
246	0xbdd9fb6f	-0.1064366
247	0xbd7312ba	-0.05934403
248	0xbcf35658	-0.029704258
249	0xbd4a5cb2	-0.049404807
250	0xbdfa7be9	-0.12230665
251	0xbdaf3d5c	-0.08556625
252	0x3c38ff20	0.011291295
253	0xbda10582	-0.07862379
254	0x3cb182d4	0.021668829
255	0x3e0c3669	0.13692631

2.bias f4 [30]
0	0xbe6518a6	-0.22372684
1	0xbf03a578	-0.5142436
2	0x4054817a	3.3204026
3	0xbea519d9	-0.32246283
4	0xbe2df0c8	-0.16986382
5	0xbea7d3cc	-0.32778776
6	0xbea77230	-0.32704306
7	0x41b88edf	23.069761
8	0xbcb6fa54	-0.022336163
9	0xc1d3eee5	-26.491648
10	0xc0a6b47a	-5.209531
11	0x4157a5b1	13.477952
12	0xbdaf870c	-0.0857068
13	0xc154004b	-13.250072
14	0xbdf6f27c	-0.12057969
15	0x41c6448d	24.783472
16	0xbedda96c	-0.4329332
17	0x41ab7f16	21.437054
18	0xbe5b34ba	-0.21406832
19	0x41cb0d57	25.381514
20	0xbda73847	-0.08165031
21	0xc253582f	-52.836117
22	0xbeb2637f	-0.34841534
23	0xbf8aa9d8	-1.0833082
24	0xbd5408b6	-0.05176612
25	0xbcb02d20	-0.021505892
26	0xbec1d4f1	-0.37857774
27	0xbf09de6a	-0.53855
28	0xbe8d4a20	-0.27595615
29	0x4141e211	12.117692

4.weight f4 [15, 30]
0	0xbc762cf8	-0.01502537
1	0xbbbff450	-0.0058579817
2	0xc20358c7	-32.836697
3	0xbe33d8ec	-0.17563218
4	0x3d8d675e	0.06904481
5	0xbda6e38b	-0.08148869
6	0xbd98357e	-0.07432078
7	0x41fe4f7d	31.788813
8	0xbce2c27c	-0.027680628
9	0x414d67da	12.837854
10	0xc0c85f18	-6.261608
11	0x415da649	13.853097
12	0x3dd23393	0.10263743
13	0xc1b908de	-23.12933
14	0xbc978ea8	-0.018500641
15	0x40f38904	7.6104755
16	0x3dad4cf1	0.08461941
17	0x417a842f	15.657271
18	0x3b389180	0.0028162897
19	0xc19d6732	-19.675388
20	0xbd080f6e	-0.03321784
21	0xc100ba63	-8.045505
22	0x3c13ed00	0.009028673
23	0x404849fc	3.1295156
24	0x3b3ca960	0.0028787479
25	0x42891506	68.54106
26	0x3d8bc49d	0.068246104
27	0x3e428be6	0.1899868
28	0x3d4e2b4e	0.050334267
29	0x410011e2	8.004366
30	0xbe0646a4	-0.13112885
31	0x3d16e46c	0.036838934
32	0xbde54e01	-0.11196519
33	0xbe4da202	-0.20081332
34	0xbcb6fb98	-0.022336766
35	0x3d557ce0	0.052121043
36	0x3e0e0270	0.13868117
37	0xbd283908	-0.041070014
38	0xbe38df83	-0.18054013
39	0xbdb5b746	-0.08872847
40	0xbc8dc530	-0.01730594
41	0xbe0e2a0e	-0.1388323
42	0x3ad6fc00	0.0016402006
43	0x3e387ef2	0.18017176
44	0xbd9d128f	-0.076695554
45	0xbda52b9c	-0.080649585
46	0xbda9c27d	-0.08289049
47	0x3d623e08	0.05523494
48	0x3c53ac60	0.012919515
49	0xbd4d7b40	-0.05016637
50	0x3e2dc3a8	0.16969168
51	0xbe338398	-0.17530668
52	0x3d8ee704	0.069776565
53	0xbd6e9f58	-0.05825743
54	0x3da32f74	0.07968035
55	0x3d1526ec	0.036414072
56	0xbd0b49ec	-0.034006044
57	0x3e34fc84	0.17674452
58	0x3e0956ac	0.13411969
59	0xbddc4567	-0.10755425
60	0xbd1edbdc	-0.038783893
61	0x3d3729ce	0.044717602
62	0xbe2f4946	-0.17117795
63	0xbde2c9aa	-0.110736206
64	0x3d1b9568	0.03798428
65	0xbdbc294e	-0.09187566
66	0xbdf4b0cb	-0.11947783
67	0xbedad503	-0.4274064
68	0xbe6618e2	-0.2247043
69	0x3d603a14	0.054742888
70	0x3d12136e	0.03566306
71	0xbe6fc4b4	-0.2341488
72	0xbdcf6224	-0.10126141
73	0xbda51c58	-0.08062047
74	0xbdc8f9a8	-0.09813243
75	0x3db4c9be	0.08827542
76	0x3c2c8d60	0.010531753
77	0xbef9a626	-0.48759574
78	0xbc353700	-0.011060476
79	0x3e6b2d22	0.22966436
80	0xbcd5f830	-0.026119322
81	0xbed5c2f5	-0.41750303
82	0x3d47e830	0.048805416
83	0xbec3e1d0	-0.3825822
84	0xbe26e0d2	-0.162967
85	0xbf4f57ae	-0.80993164
86	0xbc5ac730	-0.013353154
87	0x3dc2a1f0	0.095035434
88	0xbe4469ee	-0.19181034
89	0xbeef3f45	-0.46727958
90	0x3d41b9c4	0.0472963
91	0xbdfc547e	-0.12320803
92	0xbe6153ca	-0.22004619
93	0xbdc8c3fb	-0.09803005
94	0x3c154b30	0.009112164
95	0xbcbd4a70	-0.023106784
96	0x3d5cadd0	0.053876698
97	0x3d7c91e4	0.06166257
98	0xbe00a41c	-0.12562603
99	0x3caa28c4	0.020771392
100	0xbe4cbd4e	-0.19994089
101	0xbecc0537	-0.3984773
102	0x3bdfad80	0.0068261027
103	0xbe2a8fd9	-0.16656436
104	0x3ba706c0	0.00509724
105	0xbe770ba6	-0.24125537
106	0xbe15b1dd	-0.1461863
107	0xbe6ac217	-0.22925602
108	0xbd71c5fe	-0.05902671
109	0xbe0f23f7	-0.13978563
110	0x3cddffc0	0.02709949
111	0xbe71a1f8	-0.23596942
112	0x3e1dfc58	0.15428293
113	0xbec35453	-0.38150272
114	0xbdfdf653	-0.12400498
115	0xbd3dc254	-0.046327904
116	0xbe060738	-0.13088691
117	0x3cc38488	0.023866907
118	0x3e0b51d0	0.13605428
119	0xbe447b42	-0.19187644
120	0x3d6f9f30	0.058501422
121	0xbcf0fa18	-0.029416129
122	0xc188a5b4	-17.08091
123	0xbe190f34	-0.14947206
124	0x3b670bc0	0.0035254806
125	0x3cced080	0.025245905
126	0x3d977800	0.07395935
127	0x419d88f3	19.69187
128	0x3e290c68	0.16508639
129	0x4156cbf5	13.424794
130	0xc16bf4ce	-14.747267
131	0xc0563f5b	-3.347617
132	0x3daf1238	0.08548397
133	0x3e809623	0.25114545
134	0xbd7c17ff	-0.061546322
135	0xc1a48b20	-20.567932
136	0x3d0a9e7c	0.03384255
137	0x40800c6c	4.0015163
138	0x3e8eff96	0.27929372
139	0xc2807af5	-64.24015
140	0xbcb11230	-0.021615118
141	0xc08ff42d	-4.4985566
142	0xbcaa5b0c	-0.020795368
143	0xc15362a7	-13.211585
144	0xbdf4ac5a	-0.11946936
145	0x41d625b5	26.768412
146	0x3e283c3a	0.16429225
147	0xbdd089e8	-0.101825535
148	0x3e1989d2	0.1499398
149	0xc0e5aa27	-7.1770205
150	0x3c4656d8	0.012105666
151	0x3d8e1e50	0.069393754
152	0xc1be0fc1	-23.757692
153	0xbe151965	-0.14560468
154	0xbd5e3adc	-0.05425535
155	0xb7c1d000	-2.310425e-05
156	0xbb435720	-0.002980657
157	0x4136c8ad	11.423993
158	0x3da8c794	0.082411915
159	0xbf0f1364	-0.5588896
160	0xc1149e8d	-9.288709
161	0xbe339121	-0.17535831
162	0x3cad23b0	0.021135181
163	0x3d7b92e4	0.061419383
164	0x3b304d00	0.0026901364
165	0xc10f1570	-8.942734
166	0x3d105e8a	0.03524641
167	0xc0ea1f59	-7.3163266
168	0x3e1813f2	0.14851359
169	0xc113abf1	-9.229478
170	0x3e6965da	0.2279276
171	0x3f163623	0.58676356
172	0x3e89dc45	0.26925865
173	0xc0a87850	-5.2646866
174	0x3e258a1b	0.16165964
175	0x41e11934	28.137306
176	0x3dbdb4e8	0.09263021
177	0xbe0c2a9e	-0.13688132
178	0x3ddb090c	0.10695085
179	0xc161bb72	-14.108263
180	0xbd8cce5e	-0.06875299
181	0x3e4df41a	0.20112649
182	0xc0ebfe3a	-7.3747835
183	0xbe21b8dc	-0.15793175
184	0x3e692c58	0.22770822
185	0x3dbebd68	0.0931347
186	0x3bace4f0	0.005276315
187	0x416f8f35	14.972463
188	0x3e64564c	0.22298545
189	0x40a26e0b	5.075933
190	0xc164fb0a	-14.311289
191	0xbf980933	-1.1877807
192	0xbd78c710	-0.060736716
193	0x3d973794	0.073836476
194	0xbe98d73a	-0.29851705
195	0xc100f542	-8.059877
196	0x3d9f4788	0.077773154
197	0xc059ff03	-3.4061897
198	0xbd970a78	-0.07375044
199	0xc1c18c20	-24.19342
200	0x3d129012	0.035781927
201	0x3f2d6455	0.6773122
202	0x3df04b87	0.11733156
203	0x3f939e5b	1.1532701
204	0xbd874f7b	-0.066069566
205	0x41df881b	27.941458
206	0x3d0c5ba4	0.034267083
207	0x3da3aaa7	0.07991534
208	0x3e0c62f3	0.13709621
209	0x3f1eae6f	0.61984915
210	0x3d86ec60	0.06588054
211	0xbdd9028d	-0.1059619
212	0xbe8fb754	-0.28069556
213	0x3d74f4a0	0.059803605
214	0xbc8879a0	-0.016659558
215	0x3cc8e150	0.0245215
216	0x3de975d4	0.11399427
217	0xbebfde23	-0.37474164
218	0x3d54753c	0.051869616
219	0xbd490eae	-0.049086265
220	0xbf248de4	-0.6427901
221	0xbc8a504e	-0.016883995
222	0x3e34aafc	0.1764335
223	0xbe1076df	-0.14107846
224	0xbd16cce0	-0.036816478
225	0x3cbfdf3a	0.023421872
226	0x3e261ad2	0.16221169
227	0xbbcfdbf4	-0.006343359
228	0x3d8e3b18	0.06944865
229	0xbe1330f8	-0.14374149
230	0xbde94bb9	-0.11391396
231	0xbcca90c2	-0.024727229
232	0xbc708ef0	-0.014682516
233	0xbee629e4	-0.44953835
234	0x3daa6f80	0.08322048
235	0x3e21c5d1	0.15798117
236	0x3ddd8de4	0.10818079
237	0x3e2b46aa	0.16726175
238	0x3da5da14	0.08098236
239	0xbe8bc6b5	-0.2730004
240	0xbe80fe40	-0.25193977
241	0xbe8b0ff3	-0.27160606
242	0x3dbd81e8	0.09253293
243	0xbdefe34b	-0.117132746
244	0x3df1826c	0.11792454
245	0xbde86c7c	-0.11348817
246	0xbd84a08e	-0.06475936
247	0xbe4135b0	-0.18868136
248	0xbe5295ac	-0.20564908
249	0xbe708676	-0.23488793
250	0x3ba47500	0.0050188303
251	0xbcdf60b4	-0.027267791
252	0xbe27d1d4	-0.16388637
253	0x3e1c2704	0.15249258
254	0x3d89121c	0.06692907
255	0xbe1b3c02	-0.1515961

4.bias f4 [15]
0	0x41d18c07	26.193373
1	0xbe0a50ac	-0.13507336
2	0xbf06983a	-0.5257603
3	0xbebd5a64	-0.36983025
4	0x42a70ab5	83.52091
5	0x4283c5bd	65.88621
6	0xc20b75f9	-34.865208
7	0xbe0499b7	-0.12949263
8	0xbda35a32	-0.07976188
9	0xbd266e04	-0.040632263
10	0xbc00b8e8	-0.007856585
11	0x41f799be	30.95007
12	0xbe927aca	-0.28609306
13	0xbeb28f6a	-0.3487504
14	0xc2261a1c	-41.525497

6.weight f4 [1, 15]
0	0x3fe2115c	1.7661548
1	0x3ccad1bc	0.024758212
2	0x3d8af214	0.06784454
3	0xbe05e4a7	-0.13075505
4	0x41288fe1	10.535127
5	0x41b731f0	22.899384
6	0xc172f19f	-15.18399
7	0xbd8c684f	-0.06855833
8	0x3d93616b	0.071963154
9	0xbd6b38a6	-0.05742707
10	0x3d5832c4	0.05278279
11	0x40947290	4.6389847
12	0x3a10e280	0.0005526915
13	0xbdab45a3	-0.083628915
14	0xc1e00581	-28.002687
