data/train/neural_network_pytorch_model_cars_price_prediction.pth (torch, 33476 bytes, 7 tensors)

0.weight f4 [50, 107]
0	0x3cff6ca4	0.031179734
1	0xbd9422cb	-0.07233199
2	0x3ba832ab	0.005132993
3	0x3d2aed2a	0.041730084
4	0xbd39c85d	-0.045357097
5	0xbd8eb6c4	-0.069684535
6	0xbd374b8d	-0.044749785
7	0x3d98001c	0.07421896
8	0x3d91b043	0.071136974
9	0x3cfd9b1e	0.030957755
10	0xbdcfc890	-0.10145676
11	0x3ca1bd22	0.019743506
12	0x3cb4184d	0.021984244
13	0xbcca8a90	-0.024724275
14	0x3cefba57	0.029263658
15	0xbd964924	-0.07338169
16	0xbb28a397	-0.0025732273
17	0x3d7232da	0.059130527
18	0x3d1274ef	0.035756048
19	0xbca9927c	-0.020699732
20	0x3cc19ad6	0.023633402
21	0x3bfdac77	0.0077415067
22	0xbc706d61	-0.014674515
23	0x3cee9664	0.029124446
24	0xbd87f3c6	-0.06638293
25	0xbcba3869	-0.022731977
26	0xbd91f2c1	-0.0712638
27	0x3a52ca4f	0.00080410106
28	0xbba9dc98	-0.0051837675
29	0x3d69d72e	0.057089977
30	0x3c822ed2	0.015891466
31	0xbd816868	-0.06318742
32	0x3d8f18da	0.06987162
33	0x3baa0d11	0.005189546
34	0x3d363ed7	0.044493522
35	0xbd63f1da	-0.05565057
36	0x3d64eb64	0.05588855
37	0xbdceb2bc	-0.100926846
38	0xbd40b00a	-0.047042884
39	0xbdc02f91	-0.093840726
40	0x3bb0af08	0.005391959
41	0xbcb14e8b	-0.021643898
42	0xbd247e25	-0.040159363
43	0x3ca0fd45	0.019652018
44	0xbd408b02	-0.04700757
45	0xbdc8ff6f	-0.09814345
46	0xbd1567fd	-0.036476124
47	0xbdd28853	-0.10279908
48	0x3d8c0fb0	0.0683893
49	0xbb97826f	-0.004623703
50	0xbd228ad5	-0.03968318
51	0xbdd416c2	-0.10355903
52	0xbc934bdc	-0.017980509
53	0xbc9671e3	-0.018364852
54	0x3ca1def0	0.019759625
55	0x3bfb0acf	0.0076612006
56	0xbda527ba	-0.08064218
57	0xbd12771d	-0.035758127
58	0xbc922969	-0.017842012
59	0x3d6e56c1	0.058188204
60	0xbdc26468	-0.09491807
61	0xbd535af6	-0.05160042
62	0xbd161530	-0.0366413
63	0x3d8cb3d3	0.06870236
64	0x3bad340d	0.005285746
65	0xbdbeee41	-0.09322787
66	0xbcf726dc	-0.030169897
67	0xbd61471b	-0.054999452
68	0xbd6931ae	-0.056932144
69	0xbddf96a8	-0.10917407
70	0x3c91e1ff	0.017807959
71	0xbd733396	-0.059375368
72	0xbd9a4664	-0.07532957
73	0xbdad6ee2	-0.08468415
74	0xbab2276f	-0.0013592074
75	0xbc04e6f7	-0.008111707
76	0xbdc5efe3	-0.096648954
77	0x3bb52ebb	0.0055292523
78	0xbdb348e5	-0.08754138
79	0xbdb63a0e	-0.08897792
80	0xbd213ce8	-0.039364725
81	0xbc23a723	-0.009988579
82	0xbcd5f6ee	-0.026118722
83	0xbd873a02	-0.06602861
84	0x3ba44dbd	0.00501415
85	0xbc8a1211	-0.016854318
86	0x3d27840a	0.040897407
87	0xbd028304	-0.031863227
88	0xbdd52acd	-0.10408554
89	0xbd99c0e9	-0.07507498
90	0xbcd15a68	-0.025555804
91	0x3d9729f5	0.073810495
92	0x3cad9205	0.021187792
93	0x3c1ee683	0.009698513
94	0xbc391a20	-0.011297733
95	0xbd1263b1	-0.035739604
96	0x3d6a989d	0.05727445
97	0xbdad747f	-0.084694855
98	0x3bd98ff0	0.006639473
99	0x3d1fe28a	0.039034404
100	0xbd5a7fd3	-0.05334456
101	0xbd632497	-0.055454817
102	0xbd268679	-0.040655587
103	0x3d0facb1	0.0350768
104	0xbd821b8c	-0.063529104
105	0x3c95b43b	0.018274417
106	0xbd00fae9	-0.031489287
107	0x40bc8687	5.891422
108	0x40368a3b	2.852187
109	0xc14a822c	-12.65678
110	0xbf19254b	-0.5982253
111	0x3e122b8e	0.14274427
112	0x3ddcc7a5	0.10780267
113	0xbec4607f	-0.3835487
114	0x3f6fd0db	0.93678063
115	0x3fa76e6e	1.3080575
116	0xbe047549	-0.12935366
117	0x3f0d5bc8	0.5521817
118	0x3e1c8319	0.15284385
119	0x3eda1e0d	0.42601052
120	0x3dcba414	0.09943405
121	0xbcc46a6f	-0.023976533
122	0xbf0609df	-0.5235881
123	0xbdc31723	-0.09525897
124	0x3e15b407	0.14619456
125	0xbb817b04	-0.003951432
126	0xbdf52547	-0.11970001
127	0xbdb40806	-0.08790593
128	0x3d63a5ea	0.05557815
129	0xbe8cb0cf	-0.27478644
130	0x3eae2fc3	0.34020814
131	0xbc73f523	-0.014889988
132	0x3d2d3697	0.04228839
133	0x3ee7b49d	0.45254984
134	0x3de1646b	0.11005481
135	0x38aff36a	8.38999e-05
136	0xbed3b656	-0.4135005
137	0xbe877f26	-0.26464194
138	0x3f1a6f11	0.60325724
139	0x3f494a9d	0.78629476
140	0x3e61c9d0	0.22049642
141	0xbe892a57	-0.26790115
142	0xbe6a26ea	-0.22866407
143	0xbe95954d	-0.2921547
144	0x3ecb8f67	0.39757845
145	0xbef5c711	-0.48003438
146	0xbe2f3054	-0.1710828
147	0x3e613932	0.21994475
148	0x3f102df9	0.5632015
149	0xbed2c970	-0.4116931
150	0x3e8f1aba	0.27950078
151	0xbeb7f1d6	-0.35926694
152	0xbd267b20	-0.040644765
153	0xbe0e55c5	-0.13899906
154	0x3e8cc218	0.27491832
155	0x3cca7ef0	0.024718732
156	0x3e7d6b4e	0.24747965
157	0x3e814bd2	0.2525316
158	0x3e4b2fee	0.19842502
159	0xbcae2615	-0.021258393
160	0xbd417522	-0.047230847
161	0x3db5a24c	0.08868846
162	0x3ec665d6	0.3874957
163	0x3dac18b1	0.08403147
164	0x3e90f0b3	0.2830864
165	0x3f228b41	0.63493735
166	0x3e5cb143	0.21551995
167	0xbcaa81cc	-0.020813845
168	0x3e192390	0.14954972
169	0x3ed5263f	0.41630742
170	0x3f9762cf	1.1827029
171	0x3f84b43b	1.0367502
172	0x3f693ee0	0.91111565
173	0x3f0a730c	0.540818
174	0x3e5c981c	0.215424
175	0x3e7628d4	0.24039012
176	0x3f1869ab	0.59536237
177	0x3f84e28b	1.0381635
178	0xbdc1cbc3	-0.094626926
179	0x3d55d689	0.05220655
180	0x3f0e57fe	0.55603015
181	0xbeae399c	-0.34028327
182	0x3db14d59	0.08657331
183	0xbf6367c1	-0.8883019
184	0xbd2a62f6	-0.041598283
185	0x3f47298d	0.77797776
186	0x3ee49aad	0.44649258
187	0xbebd5f68	-0.36986852
188	0x3f0392c1	0.51395804
189	0x3fcca03a	1.5986397
190	0xbca2b208	-0.019860283
191	0x3ee03954	0.43793738
192	0x3fcdc960	1.607708
193	0x3ea142d9	0.31496313
194	0xbe795a13	-0.24350767
195	0x3ecef5f2	0.40422016
196	0x3e8c86c8	0.2744658
197	0x3db9cd84	0.09072402
198	0x3e3c96d8	0.18416917
199	0xbef2be35	-0.4741074
200	0x3ef95bef	0.48702952
201	0x3e072838	0.13198936
202	0x3f04a3f5	0.5181268
203	0x3ad38d8d	0.0016140208
204	0x3e9b8f2c	0.3038267
205	0xbfbece63	-1.4906734
206	0xbea29533	-0.31754455
207	0xbf79042b	-0.97271985
208	0xbd8fc1ba	-0.07019372
209	0x3fbfd997	1.4988278
210	0x3e1b64df	0.15175198
211	0xbe6e4f50	-0.23272443
212	0xbe433813	-0.1906436
213	0xbd8da6c0	-0.06916571
214	0xbdc24a41	-0.09486819
215	0xbc87ecdb	-0.016592434
216	0x3d6feaec	0.05857365
217	0xbcab0494	-0.020876206
218	0xbd200f42	-0.03907705
219	0x3d8aff39	0.06786961
220	0xbd9cd50d	-0.07657824
221	0xbdace051	-0.084412225
222	0x3d18b492	0.03728158
223	0xbd8d5043	-0.06900074
224	0xbdad1c5e	-0.08452676
225	0x3db1628f	0.08661377
226	0x3d822301	0.06354333
227	0x3da3cdcf	0.07998239
228	0xbd7d4f7f	-0.06184339
229	0xbc522ea0	-0.012828499
230	0x3da2b8ef	0.079454295
231	0x3d88c631	0.06678427
232	0x3d587a6a	0.05285112
233	0xbd666478	-0.05624816
234	0xbd4bb14e	-0.049729638
235	0xbd733e55	-0.059385616
236	0x3c1b5708	0.009481199
237	0x3d0946fe	0.03351497
238	0xbd7cc213	-0.06170852
239	0xbd596081	-0.05307055
240	0x3cd0e96a	0.025501925
241	0xbc5ee248	-0.013603754
242	0xbdc72579	-0.09723944
243	0x3c279d90	0.010230437
244	0x3d0ed71a	0.034873106
245	0xbd44b320	-0.04802239
246	0xbd03ed5c	-0.032208785
247	0xbd3cf8fa	-0.04613588
248	0x3cc2d3b2	0.023782585
249	0xbc0504ab	-0.008118789
250	0xbceaadd2	-0.028647337
251	0xbc783910	-0.0151503235
252	0x3b536530	0.0032256357
253	0x3d5524d2	0.052037068
254	0xbd874295	-0.066044964
255	0xbbfdfa3a	-0.0077507766

0.bias f4 [50]
0	0x3d942ac1	0.07234717
1	0xbed29b0c	-0.41133916
2	0xbd8975ad	-0.06711898
3	0x3ce21d0d	0.027601743
4	0xbd97ed65	-0.07418326
5	0xbeb1344a	-0.34610206
6	0xbdf94409	-0.1217118
7	0x3fc00138	1.5000372
8	0x3ad6ee0c	0.0016397848
9	0xbf07aea7	-0.53000873
10	0xbe94b370	-0.2904315
11	0xbd64d609	-0.055868182
12	0x3cd8c017	0.026458783
13	0x3d54a364	0.051913634
14	0xbed02b90	-0.40658236
15	0x3d7313bc	0.059344992
16	0xbe6ea4a2	-0.2330499
17	0xbf4c5e28	-0.7983117
18	0xbeceb77f	-0.4037437
19	0xbd739f82	-0.05947829
20	0xbec9c30a	-0.39406615
21	0x3e8fb0f5	0.28064695
22	0xbec049a9	-0.37556198
23	0xbe9efb8a	-0.31051284
24	0xbeb4ff96	-0.35351247
25	0xbec5629b	-0.38551793
26	0xbdcb7e58	-0.099362075
27	0xbea0c3a1	-0.31399253
28	0xbd9ec439	-0.0775227
29	0x3c19dc50	0.0093909055
30	0xbcb89f1c	-0.022536807
31	0xbdaa7bb0	-0.08324373
32	0x3d9a9f99	0.07549972
33	0xbd7d00d0	-0.061768353
34	0xbea9be60	-0.33153057
35	0xbea177f0	-0.31536818
36	0xbedb2047	-0.42798063
37	0xbcc703f6	-0.02429388
38	0xbd2a3539	-0.041554663
39	0xbe5bbc50	-0.21458554
40	0xbe04ebc5	-0.12980564
41	0x3d1954b7	0.037434306
42	0xbe69d00d	-0.22833271
43	0xbec8d1a8	-0.39222455
44	0xbe9d8f90	-0.30773592
45	0xbed20fe1	-0.4102774
46	0xbebb1c2d	-0.36544934
47	0xbe922f80	-0.28551865
48	0x3d80c25d	0.06287072
49	0xbbe3a63d	-0.0069473074

2.weight f4 [30, 50]
0	0x3c853080	0.016258478
1	0x3f4c4c16	0.798036
2	0xbd9fa378	-0.07794851
3	0xbdf4e748	-0.11958176
4	0x3daa1b58	0.08305997
5	0x3f2fcf08	0.6867528
6	0x3dc16cb9	0.09444565
7	0xc085929b	-4.174146
8	0x40fe7b3d	7.9525437
9	0x404ff846	3.2495284
10	0x3f33f5f1	0.7029715
11	0xbd675890	-0.056480944
12	0xbdfbe7b5	-0.12300054
13	0xbdd014e4	-0.101602346
14	0x4058e937	3.3892343
15	0xbabde46a	-0.0014487628
16	0x3f232fd2	0.63744843
17	0x404653b6	3.0988593
18	0x3f32fefd	0.6992033
19	0x3de913e2	0.113807455
20	0x3f44599f	0.7669925
21	0x4148c838	12.548882
22	0x3eef56bc	0.4674586
23	0x3f3cbf49	0.7372938
24	0x3f463638	0.7742648
25	0x3f07b675	0.5301278
26	0x3d8d162a	0.06888993
27	0x3f1df853	0.6170704
28	0x3eca306b	0.39490065
29	0x3dd46256	0.103703186
30	0xbdae6098	-0.085145175
31	0xbc2af330	-0.010433957
32	0xbcf1acbc	-0.029501311
33	0xbe037580	-0.12837791
34	0x3ef1ec28	0.47250485
35	0x3f12fa92	0.5741359
36	0x3f2b9145	0.6701854
37	0xbdd71764	-0.10502508
38	0x3ddcc544	0.10779813
39	0x3f46dae2	0.7767774
40	0x3f6c2f0c	0.9225929
41	0x3c8fff66	0.017577838
42	0x3f59aa6c	0.8502567
43	0x3ecddf23	0.40209302
44	0x3f05107c	0.5197828
45	0x3f469e84	0.77585626
46	0x3f6892f2	0.9084922
47	0x3f38699f	0.72036165
48	0xbe06f11d	-0.13177915
49	0xbc97bec8	-0.018523589
50	0xbd5a2d9c	-0.053266153
51	0xbcf47b94	-0.029844083
52	0x3d6bfa7c	0.057611927
53	0xbdac3e96	-0.08410375
54	0x3d220954	0.039559677
55	0x3dcf038e	0.101081
56	0x3d8dd9f2	0.069263354
57	0xbd4ef448	-0.050525934
58	0xbda4769c	-0.080304354
59	0x3cee15a0	0.029063046
60	0xbdff0b2d	-0.124533035
61	0x3d5780e0	0.05261314
62	0x3d91341a	0.07090016
63	0x3c1888a0	0.009309918
64	0x3daa17a4	0.0830529
65	0x3deee90a	0.116655424
66	0x3c57ba10	0.013166919
67	0xbc936604	-0.01799298
68	0x3d947368	0.072485745
69	0x3e075d1f	0.13219117
70	0xbbada0e0	-0.005298719
71	0xbda7c986	-0.081927344
72	0xbdaee2d7	-0.0853936
73	0x3e050037	0.12988363
74	0xbdf3e25a	-0.119084075
75	0xbe10c26c	-0.14136666
76	0xbdf49157	-0.11941784
77	0xbdac6282	-0.084172264
78	0x3dcb35b2	0.09922351
79	0x3d2ed720	0.042685628
80	0xbddcd5ea	-0.10782988
81	0xbd60b24a	-0.05485753
82	0x3e0cece9	0.13762249
83	0xbde29324	-0.11063221
84	0xbdf6a2a8	-0.12042743
85	0xbbcbc4a0	-0.006218508
86	0x3d1dd6f8	0.03853509
87	0x3d16a8f8	0.036782235
88	0x3dac9112	0.084261075
89	0xbe0442ae	-0.12916061
90	0x3d8b6ba0	0.06807637
91	0xbcd39530	-0.025827974
92	0xbce43c10	-0.027860671
93	0x3ddd693c	0.108110875
94	0xbdfe6be6	-0.12422924
95	0x3d817f28	0.06323081
96	0xbd773b10	-0.06035906
97	0xbe00f31d	-0.1259274
98	0xbdb527de	-0.08845495
99	0xbdb4c7e4	-0.088271886
100	0x3d9196b6	0.07108824
101	0xbe147bc0	-0.14500332
102	0x3b817ee0	0.0039518923
103	0xbcf9da7c	-0.03049969
104	0xbabf7080	-0.0014605671
105	0x3ecaf282	0.39638144
106	0xbdfc1aca	-0.12309797
107	0x3fb8f292	1.4449027
108	0xc0161d2d	-2.3455307
109	0xc0f7dbb8	-7.745571
110	0xbf6d87d7	-0.927854
111	0xbce84f88	-0.028358236
112	0xbe01b6a8	-0.12667334
113	0x3d983580	0.07432079
114	0xc0a52f73	-5.162042
115	0x3c96e5d8	0.018420145
116	0x3f19d424	0.60089326
117	0xc0a165ab	-5.0436606
118	0xbfb4e6a2	-1.4132884
119	0x3dd23ffc	0.1026611
120	0xbe87952f	-0.26481006
121	0xc03be182	-2.935639
122	0xbeba7b59	-0.36422232
123	0x3f935f50	1.1513462
124	0xbdcf47a6	-0.10121088
125	0x3d885e6f	0.06658637
126	0x3d879792	0.066207066
127	0x3ef507db	0.47857556
128	0xc08776cf	-4.233253
129	0x3dc6bb68	0.09703714
130	0x3d1fc120	0.039002538
131	0x3ccddd48	0.02512993
132	0x3dfe815e	0.124270186
133	0xbda6e559	-0.08149213
134	0xbe1dcaad	-0.15409346
135	0xc0111f2d	-2.2675278
136	0xbf7ac40f	-0.9795541
137	0xbcd875f4	-0.026423432
138	0xbc456e70	-0.012050256
139	0x3ed7349d	0.42032328
140	0xbd4625a8	-0.048375756
141	0x3cdbc810	0.026828796
142	0x3f023d8b	0.5087516
143	0xc01b7552	-2.4290357
144	0xbf8e8599	-1.1134521
145	0xbf23935a	-0.63896716
146	0x3fa5ca51	1.2952367
147	0x3fe3d12c	1.7798209
148	0x3b8a7ac0	0.0042260587
149	0x3d83e520	0.064401865
150	0x3dfb11db	0.12259265
151	0xbdafb0b7	-0.085786276
152	0xbd324db0	-0.04353112
153	0xbdda89c4	-0.10670808
154	0x3dce8d05	0.10085491
155	0xbbcc949d	-0.006243302
156	0xbd55ffb8	-0.052245826
157	0xbdef9ff7	-0.11700433
158	0x3c031d2b	0.00800256
159	0x3d0d09fb	0.034433346
160	0xbe0cc59e	-0.1374726
161	0xbdabd6bd	-0.083905675
162	0xbd065bf0	-0.032802522
163	0xbbd78c80	-0.006578028
164	0xbdab1c13	-0.08354964
165	0xbd8d7f7b	-0.069090806
166	0xbc0b585a	-0.008504951
167	0xbe038046	-0.12841901
168	0x3df485e2	0.119395986
169	0xbd9d3c81	-0.07677556
170	0xbd79be06	-0.060972236
171	0xbdce029c	-0.100590914
172	0xbd8e04a6	-0.0693448
173	0xbc6e33d9	-0.014538729
174	0x3c44e2d9	0.012016975
175	0xbd61d028	-0.055130154
176	0xbcbf11d1	-0.023323925
177	0x3c38e6b8	0.011285476
178	0x3dbc23e9	0.09186537
179	0xbdbcddaa	-0.092219666
180	0x3db00ee7	0.085965924
181	0xbd5a8208	-0.053346664
182	0x3e06e059	0.1317152
183	0xbdeef257	-0.116673164
184	0xbd92d2b1	-0.071690924
185	0xbd263341	-0.040576223
186	0xbd26665c	-0.04062496
187	0x3d7ea8a8	0.062172562
188	0x3d35697b	0.044290047
189	0x3dc0dad2	0.09416737
190	0xbbbe8c96	-0.005815099
191	0x3d8e75d2	0.06956066
192	0xbc8e2875	-0.017353276
193	0x3da9e297	0.08295172
194	0x3cdbe373	0.026841855
195	0xbdfd0b04	-0.12355617
196	0x3db99165	0.09060935
197	0x3daf9071	0.08572472
198	0x3d9a12c6	0.07523112
199	0xbd29a63a	-0.04141829
200	0x3d6561a7	0.05600133
201	0x3f3cb435	0.73712474
202	0xbd6f689e	-0.05844938
203	0x3d1ef472	0.03880734
204	0xbd0c891f	-0.034310456
205	0x3f493dc8	0.78609896
206	0xbe0a9b91	-0.13535906
207	0xc07c66a9	-3.9437659
208	0x40e47830	7.1396713
209	0x40632b6a	3.5495248
210	0x3f53f235	0.82791454
211	0x3d0a3fbc	0.033752188
212	0x3d601803	0.0547104
213	0x3c844368	0.016145423
214	0x3ff5ce3b	1.9203562
215	0x3e126f8f	0.14300369
216	0x3f101977	0.56288856
217	0x40f0eb70	7.52874
218	0x3f438d2c	0.76387286
219	0x3d99b32b	0.07504877
220	0x3f16089c	0.58606887
221	0x413df2b2	11.871752
222	0x3f190134	0.5976746
223	0x3f32753b	0.6971013
224	0x3f5eab79	0.86980397
225	0x3f49db22	0.78849995
226	0xbbcbc187	-0.0062181386
227	0x3f207cc0	0.62690353
228	0x3f064ecd	0.5246399
229	0xbcdf1458	-0.02723138
230	0xbddaa594	-0.10676113
231	0x3d2776e2	0.04088486
232	0x3b5935d5	0.0033143659
233	0x3dd2be68	0.10290223
234	0x3f208f9c	0.6271913
235	0x3f2294cb	0.6350829
236	0x3f16199a	0.58632815
237	0x3e128727	0.14309369
238	0x3d97be33	0.074093245
239	0x3f28b122	0.65895283
240	0x3f8fb911	1.1228353
241	0xbc79c0d4	-0.015243728
242	0x3f55c7cb	0.83507985
243	0x3e8eb04f	0.27868888
244	0x3efa0caf	0.48837802
245	0x3f0e83e2	0.5566999
246	0x3f762e8d	0.9616478
247	0x3f110211	0.5664378
248	0xbc90b080	-0.017662287
249	0x3e13bd8e	0.14427778
250	0xbd64c8b5	-0.05585547
251	0x3dc520cc	0.09625396
252	0x3ded26c1	0.11579657
253	0x3e01ae3d	0.12664123
254	0x3c713561	0.014722199
255	0x3dbed0f4	0.093171984

2.bias f4 [30]
0	0xbf76114f	-0.9612016
1	0xbdee0d5d	-0.116236426
2	0x3fa1c505	1.263825
3	0xbdae6a77	-0.085164
4	0xbf38a17d	-0.7212141
5	0x3d5077c8	0.050895482
6	0x3f183346	0.5945324
7	0xbe871667	-0.2638428
8	0xbf055aac	-0.5209148
9	0x3fdacc3b	1.7093576
10	0x3f26bb5c	0.6512964
11	0x3c642cec	0.013926726
12	0x3f80a131	1.0049192
13	0xbd916bdd	-0.071006514
14	0xbead5d48	-0.3386023
15	0xbe4c7697	-0.19967113
16	0xbd7c7d22	-0.061642773
17	0xbeff09ae	-0.49812073
18	0x3e8eb553	0.27872714
19	0x3f150d62	0.58223546
20	0xbf4db719	-0.8035751
21	0xbdee94e4	-0.116494924
22	0xbde61c9d	-0.11235926
23	0xbeca4425	-0.39505115
24	0x3d69bbce	0.05706387
25	0xbd84d7c6	-0.06486468
26	0x3d5780df	0.052613135
27	0xbecc566f	-0.39909694
28	0x400c0c2b	2.1882427
29	0xbf113207	-0.5671696

4.weight f4 [15, 30]
0	0x40a883b9	5.2660794
1	0x3cde0ed0	0.027106673
2	0xc11a6c6e	-9.651472
3	0x3de6659b	0.112498485
4	0x4087152f	4.221336
5	0xbcb6c8ea	-0.0223126
6	0x4022131a	2.5324159
7	0x403d9162	2.9619985
8	0x404f9cfb	3.2439563
9	0x41910c15	18.1309
10	0x4024b799	2.573706
11	0x3d3188f0	0.043343484
12	0xc112fbfd	-9.186521
13	0xbdb3ec23	-0.08785274
14	0x402b94df	2.6809614
15	0x401ba0cf	2.43169
16	0x3e01092d	0.12601157
17	0x402e52a5	2.7237942
18	0x40261f60	2.595665
19	0x401a948b	2.4153163
20	0x408dd98c	4.432806
21	0x3d6d4793	0.057929587
22	0x3e43880d	0.19094868
23	0x40534337	3.3009775
24	0x3d527c2b	0.051387947
25	0xbd11a05e	-0.03555333
26	0xbe23dd59	-0.16002406
27	0x40387156	2.8819175
28	0xc0f224f2	-7.56701
29	0x407b01f8	3.9219952
30	0xbe558b4d	-0.2085392
31	0xbe2379cf	-0.15964435
32	0xbd695310	-0.05696398
33	0xbe2f535b	-0.17121641
34	0xbe2778e3	-0.16354708
35	0xbdea943f	-0.11454057
36	0xbe1e7ed7	-0.15478073
37	0xbdea62bb	-0.114446126
38	0x39fe385b	0.00048488643
39	0xbd7e7dc5	-0.062131662
40	0xbc27f562	-0.010251375
41	0xbdbee365	-0.09320716
42	0xbe177a5d	-0.14792772
43	0xbddcdb87	-0.10784059
44	0x3d8ccdb0	0.06875169
45	0x3dd63d6f	0.10460936
46	0x3dcc5a68	0.09978181
47	0xba9b6b65	-0.0011857568
48	0xbdb436c2	-0.08799507
49	0xbdfd2d7c	-0.12362191
50	0x3d5c2c17	0.053752985
51	0x3e1629cb	0.1466438
52	0x3e2ee1aa	0.17078272
53	0xbd6de15d	-0.05807625
54	0x3cace41b	0.021104863
55	0x3cde323a	0.02712356
56	0x3d04763c	0.03233932
57	0x3d24c238	0.040224284
58	0xbc06e8d2	-0.00823422
59	0xbe1e72a9	-0.15473427
60	0xbda99298	-0.08279914
61	0xbdfe0d5a	-0.1240489
62	0xbcf0f945	-0.029415736
63	0x3d813064	0.06308058
64	0x3d1d3891	0.038384024
65	0xbd9b4552	-0.07581581
66	0x3de9b873	0.11412134
67	0xbe0705f8	-0.1318587
68	0xbde5bdad	-0.112178184
69	0xbdb77cc8	-0.08959347
70	0xbe118ebf	-0.1421461
71	0xbe15543d	-0.14582916
72	0xbdb1576c	-0.086592525
73	0xbd6eb45a	-0.058277465
74	0xbe4d46f8	-0.20046604
75	0x3c14dea5	0.009086286
76	0xbc17e0f0	-0.009269938
77	0xbe1a80ee	-0.15088245
78	0xbe045fba	-0.12927142
79	0xbdb4fabb	-0.088368855
80	0x3e008237	0.12549673
81	0xbe34ae56	-0.17644629
82	0xbd8cf7a6	-0.06883173
83	0xbdf8e1f2	-0.12152471
84	0x3d3cad66	0.046063803
85	0xbe3a0304	-0.18165213
86	0x3d9b7dfc	0.07592389
87	0xbe40d612	-0.18831661
88	0x3d306988	0.043069392
89	0xbdcb04f1	-0.09913052
90	0x40aa0d36	5.3141127
91	0xbe08e656	-0.13369116
92	0xc11d15ff	-9.81787
93	0x3d71656a	0.058934607
94	0x408ac32a	4.3363237
95	0x3e346dd4	0.17620021
96	0x4018438c	2.3791227
97	0x402b8436	2.6799445
98	0x4052e431	3.2951777
99	0x418f6618	17.92485
100	0x40174475	2.3635533
101	0xbe09c220	-0.13452959
102	0xc112ab36	-9.1668
103	0xbdf85db4	-0.121272475
104	0x40204d1d	2.5047066
105	0x4027c4d5	2.6213887
106	0x3d4f8037	0.050659385
107	0x402970a5	2.6475003
108	0x401f01ca	2.4844842
109	0x40159e69	2.3377936
110	0x408d357d	4.4127793
111	0x3d4d0568	0.050053984
112	0x3d835a2b	0.064136826
113	0x40622d43	3.5340126
114	0x3cf430a3	0.029808348
115	0x3e03c978	0.12869823
116	0xbd9d68c0	-0.07685995
117	0x404d0380	3.2033386
118	0xc0ed9c69	-7.425343
119	0x40700abd	3.7506554
120	0x3ce56b90	0.028005391
121	0x3cba2f18	0.022727534
122	0xbd83b286	-0.06430535
123	0xbdf3b73c	-0.119001836
124	0xbdb75c62	-0.089531675
125	0xbe26f038	-0.16302574
126	0xbd61c593	-0.055120062
127	0xbe0f190b	-0.13974397
128	0x3e10104d	0.14068718
129	0xbdce51f2	-0.100742236
130	0x3dd264c0	0.10273123
131	0xbe35f468	-0.17769015
132	0xbc9dd538	-0.01926671
133	0xbe2a7c72	-0.16649035
134	0xbc9819a2	-0.01856691
135	0xbe0c7899	-0.1371788
136	0x3df886aa	0.1213506
137	0xbda6e576	-0.08149235
138	0xbe01dcd8	-0.12681901
139	0xbe339451	-0.17537047
140	0xbcd959db	-0.026532104
141	0x3c31b980	0.010847449
142	0xbe23013c	-0.1591844
143	0xbda36c8d	-0.07979689
144	0xbdb64bc6	-0.089011714
145	0xbc31c4be	-0.01085013
146	0xbded0fe3	-0.11575296
147	0xbe3c6793	-0.18398885
148	0xbe118243	-0.14209847
149	0x3da2ad45	0.07943205
150	0x40a827ec	5.2548733
151	0xbd10de34	-0.03536816
152	0xc1186ffc	-9.52734
153	0x3e53a13c	0.20666975
154	0x4082a36b	4.0824485
155	0xbe175b3d	-0.14780898
156	0x4010649f	2.2561414
157	0x40361f38	2.8456554
158	0x405c20b9	3.4394972
159	0x418f2281	17.891848
160	0x401fbf37	2.4960458
161	0x3ddff285	0.10934929
162	0xc11199b9	-9.10003
163	0x3e10fe93	0.14159612
164	0x402ee9f9	2.7330306
165	0x40238cea	2.5554757
166	0xbe09dbe5	-0.1346279
167	0x402ffee5	2.7499325
168	0x4027a4ad	2.619426
169	0x40196b6a	2.397181
170	0x40935c94	4.605051
171	0x3d0ab4bb	0.033863764
172	0xbda15c9e	-0.078789935
173	0x4055bbd8	3.33959
174	0xbded4b37	-0.11586612
175	0xbca0dc55	-0.019636312
176	0xbdfa89b2	-0.122332945
177	0x404bb3cc	3.182849
178	0xc0ef3a63	-7.4758773
179	0x4078f625	3.8900235
180	0x40a47160	5.1388397
181	0x3e0d18d4	0.13779002
182	0xc11da358	-9.852379
183	0x3d302a44	0.043009058
184	0x4083c52b	4.1178184
185	0xbe1cc707	-0.15310298
186	0x401bda6e	2.435207
187	0x40282ac1	2.6276095
188	0x4059c5e0	3.4027023
189	0x4190d45f	18.103697
190	0x4019012d	2.3906968
191	0xbda6b3a6	-0.08139734
192	0xc114ec6d	-9.307721
193	0x3e08cf4f	0.13360332
194	0x401c84b2	2.445599
195	0x401bb898	2.4331417
196	0xbdc7f1d0	-0.09762919
197	0x4039116e	2.8916888
198	0x4013456d	2.3011124
199	0x401fdc7b	2.497832
200	0x409001fa	4.5002413
201	0xbe1f1f79	-0.1553935
202	0x3d83c27e	0.06433581
203	0x405bff8c	3.4374723
204	0xbdba58e7	-0.09098988
205	0xbd923ff6	-0.07141106
206	0x3d24a501	0.040196422
207	0x4041d94d	3.028888
208	0xc0eba8d6	-7.36436
209	0x4072898c	3.7896452
210	0x3dc3db24	0.09563282
211	0x3e1bf072	0.15228441
212	0x3e32d706	0.17464837
213	0x3dbfadcc	0.09359321
214	0x3e024adf	0.12723874
215	0xbe1d855f	-0.15382908
216	0x3d096504	0.0335436
217	0xbdbd3965	-0.09239463
218	0xbc1d09a3	-0.009584817
219	0xbe31f055	-0.17376836
220	0xbde9b712	-0.11411871
221	0xbcf24932	-0.029575918
222	0x3e1cb910	0.1530497
223	0x3e3a0292	0.18165043
224	0x3ca99046	0.020698678
225	0xbb81a336	-0.003956224
226	0x3cd1333f	0.025537131
227	0x3b3912ec	0.0028240038
228	0x3dc53463	0.096291326
229	0xbe26aa50	-0.16275907
230	0x3bcc341e	0.006231799
231	0xbe399eb8	-0.18126953
232	0xb95637e7	-0.00020429456
233	0x3c860ed7	0.016364498
234	0x3d20189e	0.039085977
235	0x3e16c3d7	0.14723144
236	0x3ce37f70	0.027770728
237	0x3c1cd5de	0.009572474
238	0xbe0ef476	-0.13960442
239	0xbda97022	-0.08273341
240	0x3e05c8f7	0.13064943
241	0xbe061e0c	-0.130974
242	0xbe64160e	-0.22274038
243	0xbdf1c5f4	-0.11805335
244	0xbe0fd188	-0.14044774
245	0x3e11cbe2	0.14237931
246	0xbe2f9ffb	-0.17150871
247	0x3d650b0a	0.05591873
248	0x3da579ba	0.08079858
249	0x3df541b8	0.119754255
250	0xbd79714b	-0.06089906
251	0x3dd72f68	0.10507089
252	0xbda3c3c8	-0.07996327
253	0x3d15a4a8	0.03653398
254	0x3d5d0b28	0.053965718
255	0xbdf2321a	-0.11825962

4.bias f4 [15]
0	0x3d33e939	0.04392359
1	0x3d92176e	0.07133375
2	0xbdeb6473	-0.114937685
3	0x3d3b8e5e	0.04579007
4	0x3d84bce1	0.06481338
5	0xbe525466	-0.20540008
6	0xbe854112	-0.26026207
7	0x3dce87da	0.100845054
8	0xbe497be0	-0.19676161
9	0x3fcbcc42	1.592171
10	0xbdd5c0d4	-0.1043717
11	0xbcee9920	-0.02912575
12	0xbc9fc6a4	-0.019503899
13	0x3cb98f0f	0.022651223
14	0xbc954a72	-0.018223975

6.weight f4 [1, 15]
0	0x4085c1e7	4.1799197
1	0xbdd05479	-0.10172362
2	0xbd848e3b	-0.06472441
3	0x4088224c	4.2541866
4	0xbd86ee95	-0.06588475
5	0x40869420	4.2055817
6	0x408757fd	4.2294908
7	0xbd833233	-0.06406059
8	0xbdb7f93b	-0.08983084
9	0xc0bb18d9	-5.846783
10	0xbe2f8fc3	-0.17144684
11	0x408940d3	4.289163
12	0x4088a7e9	4.270497
13	0x408b25b0	4.3483505
14	0x3e45e2c0	0.1932478
