artifacts/neural_network_pytorch_model_cars_price_prediction.pth (torch, 35396 bytes, 7 tensors)

weight f4 [50, 108]
-0.15733507 -0.026758082 -0.11313967 -0.026603572 -0.07255246 -0.19021024 -0.037512682 -0.18108085
-0.12760752 -0.1619556 -0.1745628 -0.16168532 -0.10398779 -0.117471285 -0.16460656 -0.11024318
-0.009468988 -0.086635016 -0.06636026 -0.11884696 -0.16343746 -0.02886387 -0.009748794 -0.17367925
-0.10806218 -0.11157181 -0.16907641 -0.057882212 -0.111697994 -0.14970016 -0.016813733 -0.07538559
-0.10568552 -0.19290659 -0.17997396 -0.16440585 -0.16527174 -0.13136137 -0.08555017 -0.0258945
-0.13794959 -0.017642178 -0.1376008 -0.08858734 -0.17333166 -0.041272603 -0.12593567 -0.08683326
-0.06841342 -0.09822112 -0.15191558 -0.027419828 -0.17475337 -0.16552445 -0.18110299 -0.19396585
-0.07658707 -0.118314564 -0.1446465 -0.0730739 -0.04147297 0.06893634 -0.07873987 -0.008536868
-0.08211984 0.08223877 -0.034638837 -0.013964109 -0.08565719 -0.08640633 -0.03751374 0.02047395
-0.00937438 -0.027650394 -0.02068121 -0.089190274 0.069024645 0.08475008 -0.1113292 -0.08993343
-0.011463486 -0.012234688 0.05494561 0.094554506 -0.081721514 0.04674322 -0.07981056 0.030050255
-0.09618462 0.07416137 0.03883212 0.05553689 -0.0035941973 -0.018274456 0.046144225 0.08123533
0.0061256513 -0.031718545 -0.0051274 0.0035851002 -0.019220673 -0.028494984 -0.051807486 -0.1869835
-0.029496506 -0.03509296 -0.057847396 -0.02320616 26.50715 8.68751 -60.93815 6.9275255
-0.38967475 -0.73792845 -1.7404821 2.6988041 1.6308839 -0.8782496 0.14555568 3.1822855
1.634457 0.6803915 -0.92207074 1.4478092 2.9934049 4.6279316 3.4638097 2.8761878
0.93852335 0.51958436 3.5172048 1.520276 -2.48243 2.729962 2.01427 3.097176
-4.7324214 -1.0983808 -1.41513 0.8767037 -0.57556075 0.30657944 0.68093324 1.4963242
1.2484441 1.7226524 0.0407822 2.9134662 -9.66331 1.6969657 -4.8327427 -1.4977897
1.6158694 -0.691528 0.35252726 -1.3205596 -1.5426751 0.22263248 2.075295 -0.4001876
0.7974871 -0.45971844 2.9076169 -0.6720703 -1.8591899 -1.6269679 -6.914262 -9.473823
-6.3142242 11.455826 -1.0818017 -9.352239 -15.80223 -14.719015 3.0734234 -18.27941
-3.171609 0.39062208 -4.362139 -11.293707 -12.164357 -10.901334 -11.966369 -7.194223
-3.5727887 -6.683886 -12.489109 -5.4090934 -11.740573 -14.082831 -7.4008584 -5.137699
-20.099735 -14.323795 -6.636868 1.9665792 -7.0018125 -3.7933047 -0.46513626 -12.429561
-4.5677047 -9.580954 -6.309198 -3.7425964 -9.780614 -11.130767 -11.223211 -13.282458
-13.164181 3.0062249 2.8430965 -1.1315335 3.6213584 3.9569006 2.1937623 0.20559484
13.797077 8.97777 -62.69544 -3.7077696 -3.7174888 4.374231 3.6288111 3.0321708
0.3814354 -2.3177733 -2.2221174 -6.594002 -4.7780533 6.839327 7.8323326 2.4445815
1.4392934 3.917038 -6.5246086 3.1519759 3.8390667 1.2529303 13.605918 3.9156268
-5.063188 -0.6345425 0.39966768 0.62004703 -5.0151215 0.7894061 2.4551127 -3.2682283
0.8959564 -5.61176 0.47564995 1.0892867 2.8262997 -6.0356007 -0.97608936 -0.87386465
00000000: 721c 21be c433 dbbc c5b5 e7bd bcef d9bc
00000010: 6296 94bd 79c6 42be e6a6 19bd 426d 39be
00000020: 8cab 02be b0d7 25be 97c0 32be d690 25be
00000030: 8df7 d4bd c994 f0bd 9f8e 28be 2dc7 e1bd
00000040: d023 1bbc b36d b1bd e3e7 87bd 0966 f3bd
00000050: 265c 27be ec73 ecbc 68b9 1fbc f9d8 31be
00000060: b44f ddbd c37f e4bd 5e22 2dbe e615 6dbd
00000070: ebc1 e4bd 004b 19be f4bc 89bc c363 9abd
00000080: a671 d8bd 4e89 45be 184b 38be 025a 28be
00000090: ff3c 29be 9883 06be ed34 afbd b420 d4bc
000000a0: a842 0dbe 5486 90bc 39e7 0cbe 486d b5bd
000000b0: db7d 31be 760d 29bd 48f5 00be a3d5 b1bd
000000c0: 561c 8cbd 2828 c9bd c28f 1bbe 8c9f e0bc
000000d0: 8cf2 32be 3e7f 29be 1073 39be fc9e 46be
000000e0: afd9 9cbd e84e f2bd 361e 14be c5a7 95bd
000000f0: 90df 29bd 7f2e 8d3d 5e42 a1bd 38de 0bbc
00000100: 722e a8bd cd6c a83d 74e1 0dbd b8c9 64bc
00000110: 096d afbd cdf5 b0bd 02a8 19bd fcb8 a73c
00000120: 0097 19bc 1483 e2bc a46b a9bc 64a9 b6bd
00000130: cb5c 8d3d 7391 ad3d 9000 e4bd 052f b8bd
00000140: 58d1 3bbc 0074 48bc a60e 613d cba5 c13d
00000150: 9c5d a7bd d275 3f3d b873 a3bd f42b f63c
00000160: 71fc c4bd ebe1 973d 6e0e 1f3d a67a 633d
00000170: a08c 6bbb 50b4 95bc ba01 3d3d b55e a63d
00000180: b0b9 c83b 4eeb 01bd c003 a8bb 00f4 6a3b
00000190: ac74 9dbc 506e e9bc 1634 54bd 9a78 3fbe
000001a0: a8a2 f1bc a3bd 0fbd 64f1 6cbd d81a bebc
000001b0: a50e d441 0a00 0b41 aac0 73c2 4aae dd40
000001c0: 7383 c7be e1e8 3cbf 1ec8 debf 35b9 2c40
000001d0: cec0 d03f f7d4 60bf 8c0c 153e 91aa 4b40
000001e0: e335 d13f 232e 2e3f d40c 6cbf d051 b93f
000001f0: f293 3f40 0418 9440 0faf 5d40 7613 3840
00000200: 1143 703f 7b03 053f e219 6140 6798 c23f
00000210: 22e0 1ec0 b3b7 2e40 cde9 0040 2238 4640
00000220: ff6f 97c0 be97 8cbf fb22 b5bf a76f 603f
00000230: f357 13bf fbf7 9c3e a451 2e3f 8d87 bf3f
00000240: 04cd 9f3f e07f dc3f 3c0b 273d 3b76 3a40
00000250: eb9c 1ac1 2c36 d93f d4a5 9ac0 93b7 bfbf
00000260: cfd4 ce3f fb07 31bf 747e b43e 1908 a9bf
00000270: 6176 c5bf c5f9 633e a2d1 0440 64e5 ccbe
00000280: 1d28 4c3f 3760 ebbe 6516 3a40 cd0c 2cbf
00000290: eff9 edbf 7c40 d0bf a241 ddc0 c794 17c1
000002a0: 200e cac0 104b 3741 7a78 8abf c5a2 15c1
000002b0: efd5 7cc1 1681 6bc1 f8b2 4440 3b3c 92c1
000002c0: a4fb 4ac0 9eff c73e a596 8bc0 06b3 34c1
000002d0: 35a1 42c1 dd6b 2ec1 3f76 3fc1 1337 e6c0
000002e0: 92a8 64c0 65e2 d5c0 64d3 47c1 4b17 adc0
000002f0: 63d9 3bc1 4753 61c1 d5d3 ecc0 0868 a4c0
00000300: 42cc a0c1 442e 65c1 3961 d4c0 deb8 fb3f
00000310: d90e e0c0 81c5 72c0 5726 eebe 7bdf 46c1
00000320: a32a 92c0 964b 19c1 f3e4 c9c0 b386 6fc0
00000330: 657d 1cc1 9f17 32c1 4692 33c1 f384 54c1
00000340: 7ca0 52c1 fd65 4040 4bf5 3540 17d6 90bf
00000350: 56c4 6740 dc3d 7d40 9a66 0c40 7487 523e
00000360: d4c0 5c41 f2a4 0f41 21c8 7ac2 194c 6dc0
00000370: 56eb 6dc0 b3f9 8b40 713e 6840 160f 4240
00000380: 804b c33e 6656 14c0 2c37 0ec0 1002 d3c0
00000390: d0e5 98c0 c4db da40 78a2 fa40 0674 1c40
000003a0: c43a b83f c0b0 7a40 98c9 d0c0 f9b9 4940
000003b0: 45b3 7540 0560 a03f d7b1 5941 a199 7a40
000003c0: a305 a2c0 6171 22bf 3ea1 cc3e 67bb 1e3f
000003d0: e07b a0c0 8516 4a3f 9120 1d40 a72a 51c0
000003e0: 665d 653f 8a93 b3c0 6488 f33e bf6d 8b3f
000003f0: 18e2 3440 a423 c1c0 fee0 79bf 98b5 5fbf

bias f4 [50]
-0.007134348 1.2904103 2.8833122 -0.18733686 0.013400465 -0.07806892 1.1148366 -0.09424713
-0.04423569 -1.3385822 -0.19192523 1.7916855 1.4339269 -0.40702707 -2.0055273 -0.05796396
-0.18974623 -0.15239383 2.6522424 1.6448394 -0.06264905 0.023636825 0.9515185 -0.14903288
1.0848993 -0.18397123 1.1836993 1.4974943 0.76485544 0.07944737 1.7445393 1.5856469
-0.15239134 -0.4418146 1.289861 0.98417854 -0.12778173 0.86723024 -0.16369168 -0.29071823
-0.08010049 -0.010128073 0.89731383 -0.111981906 1.1045209 -0.15193777 -0.040135413 -0.9030077
-0.12895438 -0.040049832
00000000: 40c7 e9bb 2a2c a53f 3088 3840 3cd5 3fbe
00000010: a08d 5b3c 99e2 9fbd f7b2 8e3f a404 c1bd
00000020: 7c30 35bd a956 abbf 0c88 44be f355 e53f
00000030: eb8a b73f da65 d0be 8f5a 00c0 9e6b 6dbd
00000040: d64c 42be 210d 1cbe 57be 2940 198a d23f
00000050: 254e 80bd 04a2 c13c b796 733f 139c 18be
00000060: fbdd 8a3f f462 3cbe 7583 973f e5ad bf3f
00000070: 91cd 433f 4db5 a23d 104d df3f 7af6 ca3f
00000080: 7a0c 1cbe 8635 e2be 2a1a a53f 20f3 7b3f
00000090: 37d9 02be cd02 5e3f cb9e 27be 05d9 94be
000000a0: ba0b a4bd 38f0 25bc 5cb6 653f c556 e5bd
000000b0: f160 8d3f 9395 1bbe 0865 24bd 832b 67bf
000000c0: 9e0c 04be 4b0b 24bd

weight f4 [30, 50]
-0.10285545 -0.19464943 -0.073729135 -0.21414666 0.036357492 0.031004593 -0.11444556 -0.003621176
-0.10050882 -0.059513845 -0.15827084 -0.14865518 -0.31787333 -0.3170828 -0.111324444 0.022707708
-0.20381919 -0.17564219 -0.10945108 -0.22182593 -0.2382634 -0.13774347 -0.09730665 -0.13613999
-0.15423733 0.011532024 -0.23077606 -0.31509775 -0.22005561 0.021672547 -0.09700571 -0.046235867
-0.21380645 -0.301554 -0.06812778 0.056786776 0.0026999116 -0.09198567 -0.1967092 -0.09902008
-0.2365247 -0.18679465 -0.08478497 -0.014739245 -0.33289066 -0.16404277 0.021746226 -0.09280731
0.0070903003 0.03118354 -0.23739922 -0.059401684 -0.17618757 -0.004057102 -0.038371168 -0.14220887
0.021119125 -0.13529764 -0.074642725 -0.051548585 -0.055402942 0.03345973 -0.05237969 -0.010306552
-0.19663584 -0.0126693025 0.037337765 0.013709582 -0.073840305 -0.14527819 -0.02385322 -0.07280346
-0.1571835 -0.17964911 0.016432889 -0.10568272 -0.14511894 -0.06727675 -0.23586808 0.12050994
0.021944195 0.022947244 -0.14498508 -0.12684113 -0.18358251 -0.09549563 0.035922445 -0.20907399
0.033747584 -0.18625696 -0.16541137 0.029717289 -0.19451268 -0.21739835 -0.21772997 -0.14614266
-0.12996861 -0.07529561 -0.14857748 0.05704321 0.0941229 2.112714 8.228204 0.12567379
-0.047144488 0.026875839 4.9649386 0.09067826 -0.07973336 -14.971272 -0.122932926 18.192448
1.2221254 1.1671772 -4.0499425 0.048652306 -0.11679312 -0.013504237 3.691558 -0.27761286
0.065224305 -0.085471384 -1.0231196 -0.08859353 7.8626747 -0.009649709 -2.1576364 8.131971
1.687916 -0.12239425 7.913454 0.9878358 0.05410652 2.4810333 -3.325322 4.2966285
0.057488993 2.33187 -0.14119487 2.7858267 -0.060980476 -0.13697278 11.244229 -0.11988169
-2.0768287 0.07021329 -0.039400257 2.059167 -0.02171062 0.034895435 0.026230477 -0.49164224
-0.33458915 -0.2235981 -0.06880185 0.005664848 -0.49082574 -0.023238286 -0.10171653 -0.19017282
-0.09917852 -0.24773037 -0.42586952 -0.13203754 -0.6009178 -0.18501545 0.099537134 -0.19014654
-0.42159775 -0.082689576 -0.09099954 -0.04320529 -0.31355676 -0.11896652 -0.2748403 0.01621762
-0.26868796 -0.42151943 -0.11750292 0.07035901 -0.34253898 -0.06387689 -0.21677785 -0.31113398
-0.08882154 0.11754119 -0.048666872 -0.33173507 -0.20094886 -0.26660186 -0.06558225 -0.08771784
-0.43842533 -0.23717545 -0.28613234 0.020336874 -0.093787625 -0.3050037 -0.23899835 -0.09477559
0.20591909 -0.3883009 2.8975132 0.09231474 -0.026029304 0.114046484 0.95534146 0.015417121
-0.027585126 -0.21336396 0.23813231 8.77047 7.9597797 3.5563974 2.339859 0.09012658
0.18830523 0.019658446 -1.0528055 1.28741 0.19336487 -0.1403662 1.2291517 0.22907808
4.4000015 0.04474745 1.0323865 2.5057333 0.5407757 0.07601231 1.9239372 1.1322931
-0.026800655 1.0787677 1.0411608 0.37831333 0.02731616 1.1743059 0.14688003 2.5551152
0.051352 -0.08892144 3.2260325 0.23039985 0.3237121 0.07022027 0.011115253 1.1557255
0.044560388 0.064851955 -0.08869419 -0.19595897 -0.09198104 -0.17766052 -0.111492984 -0.18233427
00000000: e1a5 d2bd 2e52 47be 4dff 96bd 4349 5bbe
00000010: 98eb 143d 58fd fd3c 6f62 eabd 4051 6dbb
00000020: 91d7 cdbd cac4 73bd c011 22be 1039 18be
00000030: 4bc0 a2be ad58 a2be 12fe e3bd 8405 ba3c
00000040: fab5 50be 8cdb 33be e327 e0bd 5626 63be
00000050: 52fb 73be a00c 0dbe b548 c7bd 4868 0bbe
00000060: 64f0 1dbe d0f0 3c3c 8f50 6cbe 7e54 a1be
00000070: 4256 61be a08a b13c eeaa c6bd d261 3dbd
00000080: 14f0 5abe 4965 9abe 9486 8bbd 4099 683d
00000090: 00f1 303b fc62 bcbd 236e 49be 0acb cabd
000000a0: 8833 72be 1947 3fbe bea3 adbd e07c 71bc
000000b0: a570 aabe d4fa 27be 2425 b23c c211 bebd
000000c0: c055 e83b a074 ff3c c818 73be 2e4f 73bd
000000d0: 846a 34be 70f1 84bb 162b 1dbd 349f 11be
000000e0: 0402 ad3c 778b 0abe 49de 98bd 9c24 53bd
000000f0: 32ee 62bd 120d 093d 168c 56bd d0dc 28bc
00000100: e85a 49be e892 4fbc 7cef 183d 289e 603c
00000110: 9639 97bd cec3 14be d467 c3bc fb19 95bd
00000120: b6f4 20be f0f5 37be 449e 863c 2f70 d8bd
00000130: 0f9a 14be 65c8 89bd 6787 71be eacd f63d
00000140: 50c4 b33c dcfb bb3c f876 14be a4e2 01be
00000150: 0efd 3bbe 3693 c3bd 6a23 133d 7e17 56be
00000160: e83a 0a3d 25ba 3ebe 9961 29be ac71 f33c
00000170: 552e 47be ac9d 5ebe 9bf4 5ebe 6ca6 15be
00000180: 7e16 05be 9634 9abd b224 18be 24a6 693d
00000190: 82c3 c03d b536 0740 b9a6 0341 a1b0 003e
000001a0: 941a 41bd b82a dc3c c7e0 9e40 86b5 b93d
000001b0: 3e4b a3bd 558a 6fc1 42c4 fbbd 228a 9141
000001c0: 9b6e 9c3f 1066 953f 2199 81c0 a447 473d
000001d0: 3b31 efbd e040 5dbc 7c42 6c40 4623 8ebe
000001e0: 5294 853d 9f0b afbd 95f5 82bf 8670 b5bd
000001f0: 089b fb40 d019 1ebc b716 0ac0 8e1c 0241
00000200: a20d d83f d6a9 fabd 043b fd40 cfe2 7c3f
00000210: cc9e 5d3d 40c9 1e40 13d2 54c0 fb7d 8940
00000220: 9479 6b3d 5c3d 1540 6395 10be fc4a 3240
00000230: aac6 79bd 9842 0cbe 5de8 3341 8884 f5bd
00000240: c3ea 04c0 fccb 8f3d 2a62 21bd 64c9 0340
00000250: 78da b1bc 84ee 0e3d 4ce1 d63c 88b8 fbbe
00000260: 454f abbe e6f6 64be fce7 8cbd 30a0 b93b
00000270: 834d fbbe 385e bebc c250 d0bd aabc 42be
00000280: 1c1e cbbd 08ad 7dbe 920b dabe d934 07be
00000290: c0d5 19bf b174 3dbe 20da cb3d c6b5 42be
000002a0: a9db d7be 2759 a9bd f85d babd 08f8 30bd
000002b0: 838a a0be b8a4 f3bd deb7 8cbe d0da 843c
000002c0: 7891 89be 65d1 d7be 5fa5 f0bd 6218 903d
000002d0: 4561 afbe e3d1 82bd 03fb 5dbe f44c 9fbe
000002e0: 11e8 b5bd 6fb9 f03d ea56 47bd 2ed9 a9be
000002f0: 8ac5 4dbe 0a80 88be fd4f 86bd 69a5 b3bd
00000300: 4979 e0be 1fde 72be f07f 92be 8499 a63c
00000310: ba13 c0bd 7229 9cbe fcbb 74be b419 c2bd
00000320: 74dc 523e 60cf c6be db70 3940 830f bd3d
00000330: 683b d5bc 3491 e93d 4291 743f 1898 7c3c
00000340: 34fa e1bc 157c 5abe f5d8 733e d853 0c41
00000350: 84b6 fe40 049c 6340 40c0 1540 4994 b83d
00000360: 16d3 403e c00a a13c 55c2 86bf dac9 a43f
00000370: 7101 463e 28bc 0fbe d854 9d3f 7293 6a3e
00000380: d0cc 8c40 1a49 373d 3e25 843f ef5d 2040
00000390: 4770 0a3f 58ac 9b3d 9343 f63f fbee 903f
000003a0: 0c8d dbbc 0f15 8a3f c244 853f 49b2 c13e
000003b0: 24c6 df3c a84f 963f b867 163e 0287 2340
000003c0: 7a56 523d 721c b6bd 5177 4e40 f0ed 6b3e
000003d0: 98bd a53e a5cf 8f3d c01c 363c d0ee 933f
000003e0: f484 363d 1ad1 843d 4da5 b5bd 78a9 48be
000003f0: 8e60 bcbd a4ec 35be 6f56 e4bd d6b5 3abe

bias f4 [30]
-0.116881326 -0.010570496 -1.0740184 -0.3115962 7.5582366 -0.059509486 -1.7378107 -0.10066616
3.1735308 -0.23543835 7.213217 7.4048214 -1.5950824 2.6243544 -5.252246 -0.6084645
7.213207 7.4215612 0.33626297 7.064302 4.5514035 -0.004445985 7.630438 -0.29459557
2.6020963 6.1186843 -2.27455 -0.42821 0.402215 -5.2847204
00000000: 7a5f efbd e02f 2dbc 6f79 89bf 8a89 9fbe
00000010: 13dd f140 38c0 73bd 9570 debf 0f2a cebd
00000020: 211b 4b40 c016 71be acd2 e640 4cf4 ec40
00000030: a92b ccbf 6cf5 2740 6612 a8c0 54c4 1bbf
00000040: 97d2 e640 6e7d ed40 a92a ac3e c30e e240
00000050: 19a5 9140 a0af 91bb 8c2c f440 3bd5 96be
00000060: bf88 2640 43cc c340 3a92 11c0 573e dbbe
00000070: 20ef cd3e 6e1c a9c0

weight f4 [15, 30]
-0.18338746 -0.051386185 8.673189 0.24461237 1.0806999 -0.035948053 -10.918533 0.029864818
5.0391836 -0.12284737 2.1880136 3.1297183 -11.214604 5.8306317 -25.167557 -8.485891
0.62249875 1.0140167 -0.3493745 1.3805579 -7.181043 -0.11435359 1.5257047 -0.033552922
6.9013424 8.958941 -5.975395 -0.065936685 -3.9129767 -2.7696154 0.15676373 0.24591935
-4.7277794 0.0811001 4.0386214 0.020847246 -4.148444 0.07693493 1.8449497 -0.027706541
4.7286196 5.1588697 2.3662176 1.141365 1.8467422 1.9828082 3.3535419 3.7835026
0.11185445 4.1093407 1.2026373 -0.010418966 4.447986 0.05822917 2.6410754 3.609112
2.7111073 0.2090657 2.8757937 -9.10858 -0.026753508 0.021468222 -0.16192758 -0.12744105
0.069114864 -0.023255564 -0.08858682 -0.06416471 0.057601303 -0.10107247 0.055323236 -0.3640571
-0.07737805 -0.15797722 0.037748925 -0.1638964 -0.117132045 -0.13488068 0.11008814 -0.27953878
-0.048444897 -0.14317912 -0.2174615 0.065443836 -0.2606714 -0.07339878 -0.27374268 -0.1679125
-0.009125084 -0.07879734 -0.072027326 -0.054857016 -0.18815199 0.0975396 -0.15304485 -0.07540886
-0.0035232902 0.05764036 -0.23870303 -0.15828067 -0.16781506 -0.13070387 -0.06282384 -0.0734658
-0.1605452 0.030280888 -0.01575441 -0.24783331 -0.12684363 -0.26460344 0.07911607 -0.10307222
-0.12763909 -0.029422432 -0.20267215 -0.09829666 -0.08894341 -0.10973027 -0.031118132 -0.022796333
-0.034231395 0.17567241 -4.817956 -0.04595466 3.199324 0.0899325 -14.941858 0.112749755
1.3567766 -0.04512945 4.0201936 4.318594 1.6939093 0.14724106 1.2757498 1.2555506
2.4574106 2.7788298 0.26628765 3.324471 0.5240776 -0.09712793 3.5414581 0.11788705
2.350875 3.0548184 2.1708047 -0.08441403 1.9741732 -12.585948 0.069914244 -0.17345089
-0.72406065 -0.10561164 -0.23692077 -0.011227503 -0.36721355 -0.17297706 -0.22808628 -0.12829155
-0.27658078 -0.05019415 -0.30741665 -0.09528616 -0.010408094 -0.53514206 -0.3492124 -0.23939711
0.1667395 -0.060175933 -0.3812785 -0.15792768 -0.33274993 -0.13861084 -0.41349596 -0.009938963
0.01337066 0.091505945 -0.44032478 -0.4087026 -0.05208922 0.08000834 -4.675351 -0.029553222
3.292223 0.18217024 -19.418814 0.095190674 1.5604719 0.24010539 3.989639 4.3817616
2.0391462 -0.089696 1.298156 1.4007964 2.7367039 3.043491 0.5188566 3.4550333
0.2160188 -0.011621311 3.722282 0.08068621 2.4708285 2.2984583 2.461162 -0.004378274
1.9034361 -17.295553 -0.06209731 -0.074890435 -5.6899986 -7.779151e-05 -0.20219971 -0.0014343932
-0.58609134 -0.08591721 -5.5836415 -0.15716904 -0.8952183 0.67803746 -1.3419237 -5.7351336
-5.184649 -0.60114324 -2.62824 -1.8270347 2.4608362 -2.1960673 4.957404 0.07154118
0.19067848 -0.24396974 -12.565133 3.5419898 -0.9619703 -0.13245653 -0.4948156 8.692329
0.1370931 -0.14799577 -4.608133 -0.006835891 2.7811973 0.28190476 -11.495121 -0.0993317
1.137224 -0.018297054 3.65462 4.059993 1.4159873 0.21413484 0.72638744 0.79799014
00000000: ecc9 3bbe 527a 52bd 62c5 0a41 aa7b 7a3e
00000010: 6054 8a3f 443e 13bd 50b2 2ec1 10a7 f43c
00000020: fe40 a140 6797 fbbd 6a08 0c40 4e4d 4840
00000030: 056f 33c1 8994 ba40 2857 c9c1 36c6 07c1
00000040: 145c 1f3f 4dcb 813f 37e1 b2be 1fb6 b03f
00000050: 1bcb e5c0 3732 eabd 4b4a c33f ca6e 09bd
00000060: ccd7 dc40 d357 0f41 7036 bfc0 d009 87bd
00000070: 366e 7ac0 6141 31c0 ac86 203e 48d2 7b3e
00000080: f849 97c0 cf17 a63d 633c 8140 d8c7 aa3c
00000090: 0ec0 84c0 1090 9d3d 5027 ec3f d4f8 e2bc
000000a0: da50 9740 7615 a540 1c70 1740 4018 923f
000000b0: 0c62 ec3f a9cc fd3f 6ea0 5640 e824 7240
000000c0: f213 e53d b87f 8340 05f0 993f 50b4 2abc
000000d0: e755 8e40 b681 6e3d 6107 2940 b1fb 6640
000000e0: c882 2d40 5215 563e 010d 3840 bebc 11c1
000000f0: 2c2a dbbc 20de af3c 58d0 25be e87f 02be
00000100: 188c 8d3d 7482 bebc 026d b5bd ca68 83bd
00000110: 58ef 6b3d 15ff cebd 9e9a 623d b165 babe
00000120: 6278 9ebd c8c4 21be 9e9e 1a3d 75d4 27be
00000130: ede2 efbd 291e 0abe e475 e13d b51f 8fbe
00000140: 286e 46bd 8c9d 12be 3aae 5ebe 6b07 863d
00000150: b976 85be 1952 96bd 0028 8cbe 41f1 2bbe
00000160: 6081 15bc 8060 a1bd 1083 93bd c0b1 60bd
00000170: eaaa 40be d8c2 c73d cab7 1cbe f66f 9abd
00000180: 00e7 66bb 4c18 6c3d 916e 74be 5414 22be
00000190: b6d7 2bbe 3cd7 05be c9a9 80bd 3d75 96bd
000001a0: f665 24be a00f f83c 640f 81bc 04c8 7dbe
000001b0: 4ce3 01be 1a7a 87be 9b07 a23d 8717 d3bd
000001c0: d2b3 02be 5007 f1bc 4a89 4fbe c24f c9bd
000001d0: f627 b6bd 44ba e0bd 74eb febc 60bf babc
000001e0: 3836 0cbd 78e3 333e b22c 9ac0 f43a 3cbd
000001f0: b9c1 4c40 882e b83d da11 6fc1 58e9 e63d
00000200: dbaa ad3f a8d9 38bd 6da5 8040 ec31 8a40
00000210: 05d2 d83f 5cc6 163e c54b a33f e2b5 a03f
00000220: 3746 1d40 59d8 3140 db56 883e 22c4 5440
00000230: f329 063f 02eb c6bd 40a7 6240 c46e f13d
00000240: bc74 1640 2582 4340 77ee 0a40 43e1 acbd
00000250: b5b1 fc3f 0b60 49c1 332f 8f3d 1c9d 31be
00000260: 0a5c 39bf ea4a d8bd 5c9b 72be 90f3 37bc
00000270: 6a03 bcbe e620 31be 738f 69be dc5e 03be
00000280: ff9b 8dbe 6298 4dbd b765 9dbe 6425 c3bd
00000290: b686 2abc 12ff 08bf f8cb b2be 8424 75be
000002a0: c2bd 2a3e 0a7b 76bd f036 c3be cbb7 21be
000002b0: 335e aabe 00f0 0dbe beb5 d3be 08d7 22bc
000002c0: 9d10 5b3c 7867 bb3d 4072 e1be 7841 d1be
000002d0: 825b 55bd 6adb a33d 7a9c 95c0 9919 f2bc
000002e0: c8b3 5240 d68a 3a3e bb59 9bc1 54f3 c23d
000002f0: 8bbd c73f 30de 753e 3f56 7f40 6437 8c40
00000300: 5f81 0240 89b2 b7bd fa29 a63f 4c4d b33f
00000310: 2826 2f40 8ec8 4240 c9d3 043f 441f 5d40
00000320: 0834 5d3e 5067 3ebc de39 6e40 d03e a53d
00000330: 0e22 1e40 f119 1340 ae83 1d40 a077 8fbb
00000340: cba3 f33f 4b5d 8ac1 c059 7ebd 2860 99bd
00000350: 7814 b6c0 0024 a3b8 710d 4fbe 4002 bcba
00000360: 150a 16bf 5df5 afbd 31ad b2c0 ecf0 20be
00000370: 072d 65bf dd93 2d3f 28c4 abbf 3786 b7c0
00000380: a5e8 a5c0 86e4 19bf 1635 28c0 46dc e9bf
00000390: 577e 1d40 5e8c 0cc0 0ea3 9e40 2f84 923d
000003a0: 3841 433e 34d3 79be c90a 49c1 f6af 6240
000003b0: b043 76bf afa2 07be 7858 fdbe c813 0b41
000003c0: 2262 0c3e 348c 17be d375 93c0 9cff dfbb
000003d0: 23ff 3140 d255 903e 04ec 37c1 6b6e cbbd
000003e0: 8e90 913f b4e3 95bc 4be5 6940 76eb 8140
000003f0: 123f b53f 2a46 5b3e 87f4 393f 1549 4c3f

bias f4 [15]
11.791933 12.583165 -0.18987577 -0.019063681 12.134959 -0.99954844 10.868965 16.92256
12.000191 0.43602964 0.58836055 0.940547 -0.21524256 11.458167 -0.2030617
00000000: c2ab 3c41 a554 4941 cb6e 42be 702b 9cbc
00000010: cb28 4241 68e2 7fbf 48e7 2d41 6761 8741
00000020: c800 4041 473f df3e cc9e 163f b0c7 703f
00000030: 8c68 5cbe a754 3741 68ef 4fbe

weight f4 [1, 15]
9.55095 3.2861001 -0.020356372 0.025302403 2.3217843 -0.007373251 2.2425919 10.944392
1.9580444 -0.037591424 -0.04752409 5.4830513 -0.08896818 1.9020507 -0.11095391
00000000: b1d0 1841 774f 5240 68c2 a6bc fc46 cf3c
00000010: 1d98 1440 509b f1bb a086 0f40 3b1c 2f41
00000020: 33a1 fa3f 77f9 19bd 9fa8 42bd 2875 af40
00000030: f334 b6bd 6676 f33f ce3b e3bd
